weights/EXTD_32.pth (torch_old, 301897 bytes, 166 tensors)

base.0.0.weight f4 [64, 3, 3, 3]
00000000: 251c 9d3d a944 203d 725a 123d 1f6b 0c3d
00000010: b121 873d 5c03 b83c 5ccf 183d c35a a03d
00000020: 5e30 513d 5007 6c3c 8c67 4b3d 31a1 0c3d
00000030: f9f3 553d 0f67 343d a39d 893c 877b 833d
00000040: 66b6 1a3d 81e4 853d 6dd0 343c 2650 e73c
00000050: 5cda 9b3c cffd 353d bbc4 9e3c f6c8 80bc
00000060: a5eb 013d 198b db3c b1da 4f3d 6ecd a1bd
00000070: 5fa0 49bd dae0 52bd 46ca 7bbd 326e c3bd
00000080: 665f d3bd a9d5 74bd 4fde 89bd 1657 c9bd
00000090: b130 20be 1df5 c4bd e64f debd 9851 13be
000000a0: 0262 03be 3fb5 02be a8a1 b3bd cb15 d7bd
000000b0: 7961 cebd 01d0 acbd d372 9cbd c5ea b6bd
000000c0: efae cabd 3c7c b4bd 933f b4bd 8eff 9cbd
000000d0: 2a4a c4bd f2d3 33bd 08df e5bd a271 bcbd
000000e0: be47 68bd 0538 a7bd db1c afbd d3d2 56bd
000000f0: a114 06be 0180 6ebd da3a e6bc 358c 99bd
00000100: 3b1d f6bc a053 193d a3f3 4dbd 12ca 983c
00000110: 9152 e23c 32f3 1abd fe3a b0bc 876a 683c
00000120: 0607 afbc 6166 383d bde9 223d afd8 1dba
00000130: 03a7 b33c c4da 953d 02df b43c ad57 863b
00000140: 7749 4f3d e9c8 433e 28a6 013d 4975 94bc
00000150: 4185 3f3e 337a e2bd 8b91 b8be 80cd 343e
00000160: 82f6 123e 73e8 9abc c4b4 543e 616a cbbb
00000170: 8636 3abe e2dc 2b3e 916c 1bbe db1e 02bf
00000180: db03 453e 0be8 bd3d 2c6f 25be 910f aa3c
00000190: a04a ba3c 7237 013d 8fc9 713c 8d6b 71bd
000001a0: 477f 82be fd34 533d c88a ba3d 425e 0c3d
000001b0: 4799 bd3c ba7c f33c 5ca0 dbbc fb0f 913c
000001c0: f151 813c c16d f4bc cea8 823b d5b2 96bc
000001d0: 910f 59ba 1318 143d bf8b 793c 0e82 c8bc
000001e0: 2d6b 15bb 2725 c8bb 7028 86bc c693 babc
000001f0: e1ee 1ebd 581b ab3b 349f 133d 651b 4f3c
00000200: 3d24 383c 38d0 54bc 2c38 c0bc f279 0abd
00000210: 9189 87bb 941f e9bc eac1 51bc 5060 da3c
00000220: 6ecf 973a 79e0 623d 676c 223d f713 453c
00000230: 35a7 253d b914 bf3d 89b6 893d 5bd0 593d
00000240: 5672 0c3d 5a14 8b3d 4b5a 5a3d d499 6c3c
00000250: 78f2 013d bcbf 473d 9e56 9c3d 39c9 ae3d
00000260: c0b6 723d 00da a53d 0b1c 1d3d 9eb4 463d
00000270: 4f70 a53d bceb b63d 27e4 993d 230b b73d
00000280: 1e87 9a3d b236 4e3d 425d 383d 7fbc 0a3d
00000290: 377f 3a3d 9130 2a3d 5f90 923c 6b21 9f3c
000002a0: 4277 16bc 1b29 343b 0cb5 3c3d f9ef 233d
000002b0: cdb9 913d 66a0 853d ec14 273d f34a 313d
000002c0: 39a0 aa3d 7c57 0f3d 2b9f 1f3d ae37 563d
000002d0: 2fb2 7f3d 85af 0c3d d411 893d b480 5a3d
000002e0: cab6 823d 7691 f13c 32d8 3dba 96c9 363d
000002f0: 6a1a 6d3d cee7 fcbd ea4b e33d db71 09bd
00000300: 31d8 d8bd b0a2 253e eb6e 843d 9e35 fdbc
00000310: 3110 343e 42fc c33d d9e7 97bd ebf1 493e
00000320: 1b81 6b3d 42b1 29bd 6bcf 7b3e 3990 c43d
00000330: cf27 ea3b c898 453e e73f 893d 1614 753c
00000340: d8b8 2a3e 1ce2 8c3d 60cf 4c3c 4807 553e
00000350: 5961 5d3d 10af 0d3d ca34 483e 6f10 913d
00000360: ed79 5e3d f6fb 863c 37f4 c13c 5c7d 403d
00000370: ce27 a63c dc4c fc3c 5812 1d3d afdd e53c
00000380: 7560 173c 429e bf3c b80a 233d 2c89 753d
00000390: 2572 023d 570e 5d3c 9363 773d d7ea 283d
000003a0: 53b4 0e3d 541a 1e3d 2625 553c 2802 ca38
000003b0: b25e 223d 875c cd3c e3e9 c23b c3ca 593d
000003c0: 285a 0b3d f978 333d 244d 1b3d 3a42 9cbc
000003d0: a649 78bd 7f78 8dbd 5caf 2bba d781 65bd
000003e0: ba36 83bd 3b3e 8abc 1e69 6dbc 1ba8 c6bd
000003f0: 31fe bbbd 8571 dcbd da2d 10be 8b66 72bd
0.07671384 0.03912798 0.035730787 0.034281846 0.06598223 0.02246254 0.03730713 0.078298114
0.051071517 0.01440604 0.049659297 0.03433341 0.052234624 0.044043597 0.0167988 0.06420045
0.037771605 0.06537724 0.011036021 0.02823646 0.01902502 0.044431504 0.019380918 -0.015720826
0.03171887 0.026799725 0.05074567 -0.07900511 -0.049225207 -0.051483966 -0.0614722 -0.095425025
-0.1032093 -0.059774075 -0.06731855 -0.098310634 -0.15643574 -0.09617064 -0.10855083 -0.14386594
-0.12830356 -0.12764452 -0.08771068 -0.105022036 -0.10077185 -0.08438111 -0.076390885 -0.089314975
-0.09896647 -0.08812758 -0.08801188 -0.07665931 -0.09584458 -0.0439033 -0.112241805 -0.09201361
-0.056709044 -0.08164982 -0.085504256 -0.05244715 -0.13093807 -0.058227543 -0.028104234 -0.074974455
-0.030043235 0.037433267 -0.05028118 0.018651042 0.027627261 -0.037829585 -0.021512505 0.014185554
-0.021365654 0.04501951 0.03977369 -0.0006021363 0.021930223 0.07317117 0.022078995 0.0040998072
0.05060717 0.1911961 0.0316526 -0.018122332 0.18703176 -0.11058464 -0.3604854 0.17656517
0.14351848 -0.018909669 0.20772082 -0.0062077497 -0.18184862 0.16783479 -0.15178134 -0.5082833
0.19239752 0.09272774 -0.1615569 0.020759376 0.022740662 0.031547017 0.014757528 -0.05894046
-0.2548773 0.051564205 0.09108502 0.03426958 0.023144377 0.02972256 -0.026809864 0.017707815
0.015786143 -0.029837491 0.0039874082 -0.01839582 -0.00082802126 0.03615577 0.015231072 -0.024476077
-0.0022799477 -0.0061079445 -0.016376704 -0.022775542 -0.03880203 0.0052217655 0.0360405 0.012640809
0.011239109 -0.012989096 -0.023464285 -0.033807702 -0.0041362722 -0.02845744 -0.01280258 0.026657254
0.0011582205 0.055389855 0.03965416 0.012028686 0.040442664 0.093301244 0.06724269 0.05317722
0.034288727 0.06790991 0.053308766 0.014440972 0.031725377 0.048766837 0.076337084 0.08534474
0.059256315 0.08098221 0.038356822 0.048512094 0.08078062 0.089316815 0.0751422 0.08937671
0.07545303 0.05034513 0.045010813 0.03387117 0.045531478 0.041550223 0.017891107 0.019425115
-0.009183707 0.002749032 0.046071097 0.040023778 0.07115517 0.06524734 0.040791437 0.043284368
0.08331341 0.03499554 0.038970154 0.052299194 0.06242579 0.034347076 0.066928536 0.053345397
0.063825205 0.029488306 -0.00072419934 0.04462584 0.05788652 -0.12348901 0.11098464 -0.033555847
-0.1058811 0.16175342 0.064664684 -0.030909356 0.17584302 0.09569599 -0.07417268 0.1972119
0.05749617 -0.04142881 0.24590842 0.09597821 0.007145859 0.19296563 0.067016415 0.014958402
0.16672075 0.068790644 0.012500614 0.20803559 0.054047916 0.03459078 0.19551387 0.070832126
0.054315496 0.016477566 0.023676021 0.046994552 0.020282652 0.030798368 0.038347572 0.028059809
0.009239306 0.023390893 0.039805144 0.05994527 0.031847138 0.013492188 0.060397696 0.041239586
0.03483994 0.038599327 0.013009345 9.632512e-05 0.03964109 0.025068535 0.0059482916 0.053171884
0.034021527 0.04381654 0.037915364 -0.019074548 -0.06061711 -0.069077484 -0.0006549263 -0.056032028
-0.06406923 -0.016875377 -0.014490394 -0.09700032 -0.091793425 -0.1076384 -0.14079991 -0.059179824

base.0.1.weight f4 [64]
00000000: b0b6 ad3e 0ddd f63e 98ad 933e ef24 3a3f
00000010: 4cae 923e 87cb a03e 2622 a23e c865 2d3f
00000020: d425 a13e 1ab1 f43e 42ed a73e 48d5 9a3e
00000030: a5fd 423f b4ec 943e 8f3a 8c3e 5fae 473f
00000040: 99e2 af3e 8d68 e63e 659f e63e 13e2 b63e
00000050: 1406 8b3e 95d5 b43e 7073 fd3e 642b 0f3f
00000060: bea4 123f 1c7e 413f 85cf 8e3e f2b4 bf3e
00000070: abbd 9b3e c0f7 cc3e 67e7 a63e eb42 8b3e
00000080: ae75 063f 658b 613f 47d6 073f ef17 a43e
00000090: 9b9e a03e a9a7 d83e 849a 9a3e e69d 7d3f
000000a0: cea7 b43e e4d7 0e3f 6b64 be3e 3eb5 fb3e
000000b0: 0052 be3e 43b1 033f c6b3 963e 12b3 e83e
000000c0: 3d17 3a3f f998 633f 3d9e e73e 3658 933e
000000d0: b2e9 933e 8e43 9b3e 878c 313f f899 c23e
000000e0: 42ae 9f3e fd1f dc3e 77c1 c03e 00f6 e33e
000000f0: f933 233f 70f9 d93e 8339 8d3e 045f 4a3f
0.33928442 0.48215523 0.2884338 0.72712606 0.28648603 0.3140528 0.31666678 0.6773343
0.31474173 0.47791368 0.327982 0.30240846 0.7616828 0.2908684 0.27388427 0.78000444
0.34352568 0.4500164 0.45043483 0.35719356 0.27153075 0.353192 0.49502134 0.55925584
0.57282627 0.7558305 0.278927 0.37442738 0.30418143 0.40032768 0.3259842 0.27199492
0.52523315 0.88103324 0.53061336 0.3204951 0.31371006 0.42315415 0.3019601 0.9906906
0.35284275 0.5579817 0.37185988 0.49161714 0.37171936 0.51442355 0.2943403 0.4544912
0.7269171 0.8890529 0.45237914 0.28778237 0.28889233 0.30324978 0.6935505 0.38008094
0.31187636 0.42993155 0.37647602 0.4452362 0.6375118 0.42573118 0.2758294 0.7905123

base.0.1.bias f4 [64]
00000000: 28ad 983b cc66 b6bd fac0 abbb 080f 3f3d
00000010: 46ea 3abc 482f 95bc 6ccf 283d 9d07 9d3d
00000020: 0bfa cf3c 3cc0 43bd 3844 943d 7452 bb3c
00000030: ec31 9dbe 4934 343d 14e9 00bd bdd7 0a3e
00000040: e94c 983a f152 91bd 9613 e7bc 8181 11ba
00000050: ad52 65bb 92a4 a2bc a3b2 ea3b bd2b 1a3d
00000060: 8812 5dbe 06fd 143e 9f8d 0fbc f5a7 af3c
00000070: 172f 7b3b c8f3 553b d915 f23c 4fb1 91b9
00000080: f458 d23d faec a53c 2162 20be 6c2f 4c3c
00000090: 3b8c bb3c f65c 603e ef6a 083c 559d 5f3e
000000a0: e430 47bc 9043 a8be 39fe cc3a b8e8 a5be
000000b0: 0060 1fbc 9301 eebd 0b66 013d f56f d1bb
000000c0: 1fb6 14be 9146 51be 8510 ac3b 34ed 8d3c
000000d0: 7c5c 7238 4069 cd3b bda1 f2be 3cda 0b3c
000000e0: 99a0 18bb bc66 353c 1b53 86bb 06eb 213b
000000f0: df31 453e 57ea 1d3c 50be 60bc 18c6 a33e
0.0046593137 -0.08906326 -0.0052415105 0.046645194 -0.011408394 -0.018211022 0.041213438 0.07667468
0.025387784 -0.04779075 0.07239574 0.022866465 -0.3070215 0.043995176 -0.03147228 0.1355886
0.0011619601 -0.07095898 -0.028207581 -0.00055506086 -0.0034991906 -0.019853864 0.0071624084 0.03763937
-0.215891 0.14549646 -0.008761792 0.021442393 0.0038327628 0.0032646526 0.029551433 -0.0002778866
0.10270873 0.0202546 -0.15662433 0.012462478 0.022894016 0.21910462 0.008326276 0.21837361
-0.0121576525 -0.32864046 0.0015639729 -0.32404113 -0.009727478 -0.11621394 0.031591456 -0.00639152
-0.14522599 -0.20437075 0.0052509927 0.017325021 5.778343e-05 0.0062686503 -0.47389022 0.008535918
-0.0023289083 0.011071857 -0.0040992624 0.0024706735 0.19257306 0.0096383905 -0.013717249 0.3198707

base.0.1.running_mean f4 [64]
00000000: 8b61 92c0 87ee 9741 857e 7141 cc9d 8c3f
00000010: 53ea 4a40 cb0c 50c1 25e0 26c1 48ec 99c0
00000020: b72e c3c0 63f5 c840 94d9 eec0 5788 2b41
00000030: ddcf eb3f 3668 ecc0 7f49 f041 f56f ebc0
00000040: ea13 9940 7c83 67c0 e961 6041 39ef cac0
00000050: 44f7 a540 b326 0641 addd b3bf 2905 ac40
00000060: 63b0 4440 bd3f 803f fafd b9c0 5677 3f41
00000070: 762a 80bf 8d95 41c1 55fa 6cc1 4476 a941
00000080: 3fae 293e f329 2f3e 40c8 dc40 9173 8940
00000090: 2420 b4c0 2389 bdbe 5caf 8141 8cf5 b83e
000000a0: 13a2 5bc1 a67d b140 1b89 2441 42ca 2640
000000b0: 0731 32c0 0025 05c0 a762 6940 4784 4c41
000000c0: e450 dc3f 573b a541 8a6c 45c1 6e06 46c1
000000d0: ded9 5d3f aaa4 56c1 963e 3441 0828 69c0
000000e0: b95c 5741 7000 b641 8538 50c0 e025 58bf
000000f0: c064 c1bf 0fce 4ec1 3dd1 7040 9783 84c1
-4.574407 18.991468 15.093389 1.0985656 3.170552 -13.003123 -10.429723 -4.810093
-6.0994525 6.2799544 -7.46406 10.720786 1.842281 -7.387721 30.035887 -7.3574166
4.783681 -3.6174002 14.023904 -6.341702 5.186434 8.384448 -1.4052025 5.37563
3.0732658 1.0019451 -5.812253 11.966635 -1.0012958 -12.099011 -14.811116 21.182747
0.16570376 0.17105846 6.8994446 4.295357 -5.6289234 -0.3701869 16.210625 0.36124837
-13.727069 5.546588 10.283473 2.6060948 -2.7842424 -2.0803833 3.6466463 12.782294
1.7212186 20.653975 -12.338999 -12.37657 0.86660564 -13.415201 11.26528 -3.6430683
13.460137 22.750214 -3.2534497 -0.8443279 -1.5108871 -12.925307 3.762771 -16.564253

base.0.1.running_var f4 [64]
00000000: e9a8 f445 da8a ce47 f74e 0747 7846 4144
00000010: 6058 0245 1e6d 9d47 cd9a 1047 d715 9e45
00000020: f929 1c46 1c38 5d46 c2c2 4546 955c 1c47
00000030: 614a 6645 e57c 8046 b1ac 8948 8acc fc45
00000040: 9860 ba45 ec13 7445 61aa 2947 a781 6f46
00000050: 7480 d646 579f 4846 ced8 bb44 ef19 3746
00000060: ae8d 4145 68c9 0b45 a052 a146 ca0f 4d47
00000070: 7e9c a645 c2af c746 f2c1 0f47 caac 1d48
00000080: e97d b544 5390 c945 0e21 2f46 2bb5 4d45
00000090: 4b32 7d46 8034 5244 721b 7247 907f 3645
000000a0: e532 8747 5936 1346 4c10 b646 9850 5c45
000000b0: ee37 4946 301b 5b45 c0bc 7a45 9399 b046
000000c0: 8bde 1b45 9cc2 5f47 880b a746 8a25 5847
000000d0: 0cb0 ea44 7d49 4b47 ad07 0047 0b5f e845
000000e0: 2e89 2e47 d32f 1148 5f74 ea44 0da9 4443
000000f0: eb67 2045 3aac 5947 e7a4 9645 9c3c 4947
7829.114 105749.7 34638.965 773.1011 2085.5234 80602.234 37018.8 5058.73
9994.493 14158.027 12656.689 40028.582 3684.6487 16446.447 281957.53 8089.5674
5964.074 3905.245 43434.38 15328.413 27456.227 12839.835 1502.7751 11718.483
3096.855 2236.588 20649.312 52495.79 5331.5615 25559.879 36801.945 161459.16
1451.9347 6450.0405 11208.264 3291.323 16204.573 840.8203 61979.445 2919.9727
69221.79 9421.587 23304.148 3525.037 12877.982 3505.6992 4011.7969 22604.787
2493.909 57282.61 21381.766 55333.54 1877.5015 52041.49 32775.676 7435.8804
44681.18 148671.3 1875.6366 196.66035 2566.4949 55724.227 4820.613 51516.61

base.1.conv.0.weight f4 [64, 1, 3, 3]
00000000: a09f 873d 68e8 0d3e 08d9 b43d e29d a03d
00000010: a186 ba3d 3855 a43d 175f ad3d 6104 7a3d
00000020: a647 5a3a 4c5d 813e ed02 703e 6e68 273e
00000030: 46a6 033e 1465 ce3d a71d bb3d 837b b83c
00000040: 6b68 30bc 6104 9bbc aab1 39be 45a6 ddbd
00000050: 6d98 d3bd 326f 2fbe d5ba 09be 06dd 22be
00000060: da66 6fbe bd9e 1dbe 8228 49be 63cf f5bc
00000070: 46cf 83be 0591 6e3c 8436 0cbd 5b56 5d3f
00000080: 855e 75be 221e 21bd fa84 22be b0a6 6a3c
00000090: 23ba 8cbc 7437 e6b9 276a 853d 13a4 2bbd
000000a0: 3f2b 463c d131 1e3d b6b6 11bc 35df 303d
000000b0: 3c68 953d 5581 07be 800a 05be dbb1 04be
000000c0: 415f 143c a6d3 01bd 885e 09bd 2418 3f3c
000000d0: df26 24bd 0e56 9ebd 1e13 0c3d 859a 853d
000000e0: a619 893d e70c 913c ff67 bb3d 344e 823d
000000f0: f046 d33d 0b79 c53d f7bc 063d 9dce 4abe
00000100: 1185 8abe 1fe1 d83d 2efa 653d ccf4 fdbe
00000110: b100 2d3e b91e d03e 1aa3 cb3b 5a69 6a3e
00000120: cf89 273d 893a cc3d f38d 4b3d 302f 433d
00000130: b795 363d ab11 903d 26c5 b73c a46e ac3d
00000140: 1404 ac3d 63e8 58bd 0a2a 8b3d 802f 2c3d
00000150: 56db 983d a71a 3d3e cc4c 1d3e fc0a 873d
00000160: 601c 6c3e 900d 503e 6d6f b1bd 8419 e3bd
00000170: b45e aebd a3ee ffbd a7b5 11be f5fb bebd
00000180: 69d4 bdbd 3608 dfbd 80a7 06be 2ea3 ae3d
00000190: 933e 0b3d 86fa 033d 3852 473d 041a c23d
000001a0: 3b9b e53d 7231 aa3d f703 843d 492f 363d
000001b0: a529 383d 0460 44bf 8a89 5f3d 4625 39be
000001c0: 26b9 853f 711e 51be aab3 bbbd b6a3 3e3e
000001d0: c5fd 4abd 57cf 0fbd 664d 7dbd 7cde e0bc
000001e0: 6a4e 0abd a1af 12bd a482 76bd a8b2 cabd
000001f0: f3a5 b2bd 61e3 ffbd d3f3 e7bc dc53 8dbd
00000200: e456 4cbd 7caa 3f3a 0f61 89bd e6e3 edbd
00000210: 8af3 c03c c4be 53bd daa7 b5bd 9360 80be
00000220: c8f0 68bd 83a3 90be 1326 943c 1f02 823e
00000230: 657c 8dbc 9eba 883e 0041 f93e 504c 9e3e
00000240: e0e0 973d efb4 243e 26b7 d13d 2394 423d
00000250: 94e4 153e de69 aa3d 0f6f a03c a468 4f3d
00000260: 50b2 913d e8e3 f7bd dd02 d1bd 3338 2339
00000270: 3b2e 43be 9b1e 27be c132 adbd 5fec fabd
00000280: 4345 2dbe 4ba6 f8bd a487 cd3c e00d cc3d
00000290: 28c5 233e 440d 923d 8740 eb3d d10f 463e
000002a0: e49e 3f3d 078f 933d 4196 513e 5802 6f3d
000002b0: 34eb 673d d1b8 2b3d 6235 8d3d 1dfb 953d
000002c0: 880c da3d 721d 093e 7a20 0a3e f28c fc3c
000002d0: 2aa0 1d3d 1049 b63b 2343 293d a937 05b9
000002e0: f90c bbbc 6580 43bc 468c 13bb c115 d5bc
000002f0: 2741 9bba a8f0 8fbd d1b7 b8bd 120d a9bd
00000300: 8a02 19be 506e 8cbd c24d 12be 3f11 cfbd
00000310: d08c f6bd 751f 69bd b2b3 03be 1997 33be
00000320: cfb0 aa3d 9651 24be a2d9 b8be 6794 a9bc
00000330: c099 edbc 20fa 6abd a64c 3c3e e6a0 5fbb
00000340: ff15 31be 60b7 37be a381 d5bd db7f 83be
00000350: 36b7 24be 1a00 d8bd e5a7 7dbe fa32 b6bd
00000360: f7f7 77bc 04b0 053d 1528 a439 a1be c4bd
00000370: 4c2c 253f 517b ae3e 28ed ab3d c7e7 03bf
00000380: 1e22 f4be 91b7 8ebe 17d2 a9be 372e 97be
00000390: 6233 8fbe 73b2 8fbe 9a18 89be 2eea 65be
000003a0: 4d5d 8fbe f5d2 81be c5ea d4bc b197 cebb
000003b0: 8641 2f3a 2a0e 0b3d f81a 393b adbe cc3b
000003c0: a2d2 cb3c a995 90bc 1189 c53b 3d2a b2bc
000003d0: 75d8 cb3c 05c2 8b3d 30b8 5d3d 5e84 1a3e
000003e0: 17a0 303e 2558 813d ccfd b53d 966c 093e
000003f0: 29f0 093d c270 923d 7ddf 053d 8954 723d
0.06622243 0.13858187 0.08830458 0.07842614 0.0910771 0.08024067 0.084654026 0.061039332
0.00083267165 0.25266492 0.23438616 0.1634843 0.12856397 0.10077873 0.09136515 0.022519832
-0.010767083 -0.018922986 -0.1813418 -0.10822729 -0.10331807 -0.17132261 -0.13450177 -0.15904626
-0.23379079 -0.15392585 -0.19644359 -0.030006116 -0.25744075 0.014560943 -0.034231678 0.86459893
-0.23961838 -0.039335378 -0.15871039 0.014321968 -0.0171786 -0.00043910334 0.065143876 -0.04190452
0.012095272 0.038621727 -0.008893659 0.043181617 0.07295272 -0.1323293 -0.12992287 -0.12958471
0.009055913 -0.031695984 -0.033537418 0.01166347 -0.040076133 -0.077312574 0.03419792 0.06523613
0.06694345 0.017706348 0.09150695 0.06362572 0.10316265 0.09642228 0.032895055 -0.19805379
-0.27054647 0.105898134 0.056146793 -0.49600828 0.16894795 0.4064844 0.0062145116 0.22891751
0.04090291 0.09972102 0.04969592 0.047652423 0.044576373 0.0703462 0.022432875 0.084195405
0.08399215 -0.052955996 0.06795128 0.042037487 0.0746371 0.18467198 0.15361327 0.06593892
0.23057699 0.20317674 -0.08663831 -0.11088851 -0.08514157 -0.12496688 -0.14229451 -0.09325401
-0.0926903 -0.10890238 -0.13149834 0.08527218 0.033995222 0.03222134 0.048662394 0.09477618
0.112112485 0.08310212 0.06446069 0.04447869 0.04496159 -0.7670901 0.054574527 -0.18080625
1.0447128 -0.20421769 -0.091651276 0.18617138 -0.04955842 -0.035109844 -0.06184139 -0.027449839
-0.033766188 -0.035812024 -0.060183182 -0.09897357 -0.087230586 -0.12494541 -0.028314507 -0.069007605
-0.049887553 0.0007311476 -0.067079656 -0.11615734 0.023553628 -0.0516956 -0.08869906 -0.2507368
-0.056870252 -0.2824975 0.018084561 0.25392243 -0.01727123 0.26704878 0.48682404 0.30917597
0.074159384 0.16084646 0.10240011 0.047504555 0.14637977 0.08320974 0.019584207 0.050636902
0.071140885 -0.121040165 -0.10205624 0.00015565827 -0.19060604 -0.16320269 -0.08456946 -0.122521155
-0.16920952 -0.12141093 0.025089093 0.09963584 0.15993178 0.071314365 0.11486917 0.19341971
0.04678239 0.07205015 0.20467474 0.058351845 0.05662079 0.0419243 0.068949476 0.07323287
0.106469214 0.13390139 0.13488951 0.030828927 0.038482822 0.005562909 0.041323792 -0.00012704603
-0.022833334 -0.011932467 -0.002251403 -0.02601135 -0.0011844978 -0.070283234 -0.09019435 -0.08254446
-0.14942375 -0.06856978 -0.14287475 -0.10110711 -0.120385766 -0.056914765 -0.12861517 -0.17538108
0.08334505 -0.16046748 -0.3610354 -0.020700647 -0.029003978 -0.057367444 0.18388614 -0.0034123003
-0.17293547 -0.17941046 -0.10425117 -0.25683483 -0.16085514 -0.10546894 -0.24771078 -0.08896442
-0.015134803 0.032638565 0.0003131038 -0.09606672 0.64520717 0.34078458 0.08394843 -0.5152554
-0.4768228 -0.27874425 -0.33168098 -0.29527447 -0.2796889 -0.28065833 -0.26776582 -0.22452614
-0.2800087 -0.2535626 -0.025990853 -0.006304704 0.0006685484 0.033949055 0.0028244834 0.0062483163
0.024880711 -0.017649489 0.0060283025 -0.021748656 0.024883488 0.06824116 0.054130733 0.15089557
0.1724857 0.0631564 0.088862985 0.13420328 0.0336763 0.07150413 0.03268384 0.05916265

base.1.conv.0.bias f4 [64]
00000000: 8e54 613c f80f 26bd 217b 8bbb 8d27 293f
00000010: 98fe 26bc e4bb 5a3d 7ff8 2e3d 7bb3 4b3d
00000020: 1085 f03c 9404 39bd e0d5 0bbd fb59 0a3d
00000030: bb59 ab3e b013 38bd c3b4 1e3d b6dd f63d
00000040: 15c7 433c a725 e13d 09e9 83bb 4d70 853c
00000050: 57a1 feba cbd7 513c acf0 3a3e f5f1 ccbd
00000060: e5fb 893e da0b 353d 3f16 8dbb e826 0d3d
00000070: 9f30 8f3c 98f3 b6bb 056e 8739 c94f 01b8
00000080: 0c94 e93d a869 bbbd 0cba f9bd 6b67 5abd
00000090: e4ba 12bd bb69 ee3e 8cfa ec3c 9288 fd3d
000000a0: e799 df3c 7bff 0d3e 0afc 713c 0552 333e
000000b0: 739e 95ba 6b4d 9dbd 4b3a 52bd e65e dc3c
000000c0: fc1d 52bd 70a8 143e 2cf2 fa3b 21dd 2dbd
000000d0: 9846 08bb 5cbe 3f3c 5820 a13d 75fb c53c
000000e0: 851e 8ebb 8b2e cb3c dd10 a73d 38ef 8b3d
000000f0: 73f3 4abc 018d 863a 3b6a e4bb 13aa 2e3e
0.01375307 -0.040542573 -0.0042566215 0.66075975 -0.010192536 0.053401843 0.042717453 0.049731713
0.029360324 -0.04517038 -0.034139514 0.03377722 0.33466896 -0.04494065 0.038746607 0.12054007
0.01194932 0.1099351 -0.0040255827 0.0162889 -0.0019426745 0.012807797 0.18255872 -0.10007087
0.26949993 0.044200756 -0.0043056305 0.034460932 0.017479239 -0.005583238 0.00025831177 -3.0830302e-05
0.11405191 -0.09151012 -0.12193689 -0.053321283 -0.035822764 0.4656504 0.028928064 0.12379564
0.027295066 0.1386699 0.014769563 0.17511757 -0.0011415019 -0.07680782 -0.051325124 0.02690072
-0.051298127 0.14517379 0.0076582637 -0.042447213 -0.002079403 0.0117031 0.07867497 0.024167756
-0.0043371343 0.024802467 0.08157513 0.06832737 -0.012387144 0.0010265411 -0.0069706715 0.17057066

base.1.conv.1.weight f4 [64]
00000000: 5790 983e d010 f23e 9ac5 913e 6d16 623f
00000010: 5372 933e 5f02 ba3e 6695 913e 43c1 2b3f
00000020: 410c 983e dfbf fd3e 50c6 9c3e 7d38 8f3e
00000030: a85a 453f 8f26 843e 841b a63e b6b1 3b3f
00000040: 87ef a63e 5b3f 033f c9ca e23e 51d3 af3e
00000050: 6e60 8d3e 98ff bc3e 2f36 053f 1af3 0b3f
00000060: 2448 f43e e2d8 4d3f 7c18 923e 46fe b33e
00000070: 07f6 943e 23dc c23e ff47 b23e 76de 8f3e
00000080: 376b 033f c5d0 563f a300 0e3f 0bc2 9a3e
00000090: 4560 973e 5f63 133f 1f72 7d3e 9489 6d3f
000000a0: 1052 b93e a534 163f f95b a73e 47cb fd3e
000000b0: b4ee bd3e 817c 143f 9ac5 8b3e 6432 ed3e
000000c0: f1bd 3a3f 2908 e83e c5a9 dd3e 1f56 853e
000000d0: e8d7 8d3e 5ece 953e ba32 223f 9710 c73e
000000e0: 1ff6 aa3e 1243 de3e 8319 cf3e 6472 de3e
000000f0: 0550 123f 040f d53e c6d4 943e 6919 283f
0.29797623 0.47278452 0.2847107 0.8831547 0.2879816 0.36329934 0.28434294 0.6709177
0.2969685 0.4956045 0.3062005 0.27972785 0.77091455 0.25810668 0.32442868 0.7331804
0.3260462 0.5126855 0.44295338 0.3434091 0.27612633 0.36913753 0.520358 0.5466782
0.4771129 0.8040906 0.28534305 0.35154933 0.29093954 0.38058576 0.34820554 0.28099412
0.5133547 0.8391231 0.5546972 0.30226168 0.29565635 0.57573503 0.24750565 0.9278805
0.3619542 0.5867408 0.32687357 0.4956915 0.3709618 0.5800248 0.27299196 0.46327507
0.7294608 0.45318726 0.43293586 0.26042268 0.27703786 0.29259008 0.6335865 0.38879845
0.333909 0.43410546 0.4044915 0.43446648 0.5715335 0.4161302 0.29068583 0.6566377

base.1.conv.1.bias f4 [64]
00000000: d27b 243d 2ea7 8bbc 7968 ffbb ad4f 8e3e
00000010: 004f eebb a995 dc3d db9e 9c3d 0f27 043d
00000020: de0f 533d 6ef6 0dbd a6c3 bcbd 2fc9 bb3d
00000030: 3876 243e 0038 acbd 1d0c ca3d cba1 443d
00000040: 8fda 473d 4d82 193e e596 7ebb 2919 063d
00000050: 6b88 ef3b 844e fb3c 4656 b23d b620 0bbd
00000060: fb72 093e bf3c 263e 7d0c e8bb b283 a53d
00000070: fe57 0a3c f3b0 4cbd 59c3 d13c 81cc 8f3c
00000080: a419 9d3d 2561 b4bc 37f7 93bd 793e 24bd
00000090: dc9f 33bd 2812 5e3e 8a40 083d d9a7 ae3e
000000a0: 3251 c83c 45dc 8f3d 50c9 943d 4077 6c3d
000000b0: 61af 333c 016a 26be 21ea 2bbd 4b39 1f3d
000000c0: 83be 1ebd 0310 a73d 6437 ee3c 901b acbd
000000d0: 4de4 a9bb 7a25 623d 8620 773d 8548 3c3d
000000e0: 8a17 903c 98ce cf3c 522c a13d 7c99 433d
000000f0: 2d47 973b e724 07bc 7c32 f0b9 3597 883d
0.040157147 -0.01704749 -0.0077944365 0.27795163 -0.007272601 0.10770733 0.07647487 0.03226381
0.051528804 -0.03465884 -0.092170045 0.09169232 0.16060722 -0.08409119 0.09865592 0.04800586
0.048792418 0.14991112 -0.0038847264 0.03273884 0.0073099635 0.030677088 0.087078616 -0.033966742
0.13422768 0.1623411 -0.007081567 0.080817595 0.008443831 -0.04997344 0.025605844 0.01755357
0.07670906 -0.022018978 -0.07224887 -0.04009864 -0.043853626 0.21686614 0.033264674 0.34112433
0.02445278 0.07024435 0.0726496 0.057730913 0.010967107 -0.16251375 -0.04197133 0.038873
-0.038755905 0.08157351 0.029079147 -0.08403695 -0.0051846863 0.05521152 0.06033375 0.045967598
0.01758935 0.025367066 0.078697816 0.047753796 0.004616639 -0.008248544 -0.0004581398 0.066694655

base.1.conv.1.running_mean f4 [64]
00000000: b849 c23e 25c1 023e ab1b babf b317 273e
00000010: 0ec1 393e f53e d5be 77f3 c03e 46d5 f3bd
00000020: f2f7 b33e 84d4 af3e 604d 4ebf f235 f83e
00000030: 60d1 cebd 51c6 03bf 5c48 0dbf ec86 d03d
00000040: 184c 063f 5cb9 adbe 7763 1b3e 5e47 903e
00000050: 5b6c e63d a3e8 1cbf 4840 e5bd 15a5 dbbd
00000060: 530c 043c 0406 bbbf 7f3d 123e 4211 d23e
00000070: 2eeb 2d3e 270a a7bf d6ff 25bf 2b4f 35bf
00000080: a9d3 1a3e 65d7 e5bd 7de7 123e 9c1a 4abe
00000090: 5e81 6abe 9f63 1a3e 637c 8c3e 18f1 993f
000000a0: a12b 67be 0284 e3bd 7069 753f dead 6a3d
000000b0: c359 9e3e 414e 123f 7062 4abe 22b6 93be
000000c0: 2c7e a63e 1d0e b13c f4d1 2f3f fe87 0cbf
000000d0: 3feb 4d3f e73c 213f d15e b8bd 41b1 88be
000000e0: 736d fbbe 5f6c 4ebe e09d 7bbe 2f59 2dbe
000000f0: 5ffb 3cbd 3a5c d5be f947 ea3e 1309 a63d
0.37946868 0.12768991 -1.4539694 0.16317634 0.18140051 -0.41649595 0.3768575 -0.11905913
0.35150105 0.34341824 -0.80586815 0.48478657 -0.10098529 -0.5147448 -0.55188537 0.10181984
0.5245986 -0.3393048 0.15174662 0.2817945 0.11251136 -0.61292475 -0.11193901 -0.10724846
0.008059579 -1.4611211 0.14281271 0.41028792 0.16984245 -1.3049973 -0.648435 -0.70823926
0.15119804 -0.11222724 0.14346118 -0.19736713 -0.22900912 0.15077065 0.2743865 1.2026701
-0.22575237 -0.11109163 0.9586401 0.05729472 0.30927858 0.57150656 -0.19764113 -0.28849894
0.32518137 0.021613175 0.6867974 -0.5489501 0.8043708 0.62983555 -0.0900246 -0.26697734
-0.4910694 -0.20158528 -0.24571943 -0.16928552 -0.046138164 -0.41671926 0.45758036 0.081071995

base.1.conv.1.running_var f4 [64]
00000000: 52b8 563f 86b7 bb3d bec0 1e41 28a8 103e
00000010: b087 4a3e bc2e 7a3f 4c1b 3d3f 26c7 a53d
00000020: b300 303f ce1d 083f 62c8 7340 7bef 9c3f
00000030: bc86 793d 8ab8 c23f cae2 b63f 01e3 833d
00000040: 8b72 ba3f 1123 243f bf7c ed3d f1e1 013f
00000050: 5ac8 693d 945e 0040 50ec 873d 0a97 813d
00000060: be55 0a3c 95c3 1541 d493 053e 6cef 653f
00000070: 1d63 453e 390f 2a41 3ee7 0240 5f11 2a40
00000080: d43e 023e 3ab5 8c3d 7049 cc3d c987 563e
00000090: 0d0c 9d3e 9a66 c13d 3ac8 bc3e 82eb e040
000000a0: ab86 8b3e f546 8b3d 216d d140 f296 a43c
000000b0: b231 1f3f 7bed e63f 7285 5a3e 8931 f23e
000000c0: a598 153f a9c7 673b 5789 2e40 3316 ed3f
000000d0: 7db8 4840 e6e3 1d40 2e59 2a3d c2da d93e
000000e0: 0db3 a73f 0761 543e 9339 aa3e ecc4 f33d
000000f0: 0665 663c ed4f 983f a375 8a3f f276 433d
0.83875 0.09165864 9.922056 0.14126647 0.19778323 0.9772756 0.73869777 0.08094625
0.68751067 0.5317048 3.8091054 1.2260584 0.06091951 1.5212567 1.428796 0.06439782
1.4566206 0.6411601 0.11596059 0.50735384 0.057075836 2.0057726 0.0663687 0.063276365
0.008443294 9.3602495 0.13044673 0.89818454 0.1927609 10.628716 2.045364 2.6573102
0.1271928 0.06870504 0.099749446 0.20950235 0.30673257 0.09443398 0.3687151 7.0287485
0.2725118 0.06800643 6.5445714 0.020091508 0.62185204 1.8041223 0.21339968 0.47303417
0.5843604 0.003536681 2.7271326 1.85224 3.1362603 2.4670348 0.041588955 0.4254971
1.3101517 0.20740138 0.3324705 0.11902794 0.014062172 1.1899391 1.081715 0.047720857

base.1.conv.3.weight f4 [32, 64, 1, 1]
00000000: c10c ae3c 7938 903d 4959 2abd d1eb 9e3e
00000010: 2a75 f7bb 938f a1bd 894f b9bc d469 c6bd
00000020: 2e3b 883d 59a9 143d 201c bdbc 4a27 203d
00000030: 1e24 973e a16f 673d 7b7d 96bd 538d 503d
00000040: 70e0 133d 7088 653d cb50 8c3d cc8f 1d3d
00000050: 2d3b 9b3c 55bf 0ebc 5e3e babd c1a1 2d3d
00000060: d68c 97be 0a11 ba3c 2609 4fbd 44ed e53d
00000070: d252 45bd a35d 72bd 0581 63bd cd6d 2ebc
00000080: 5fba 133a abfa e23a e90e cb3d ea28 72bd
00000090: f528 533d eae3 d4bd 2ac2 17bd be10 083d
000000a0: 0445 d03c b998 883d 4519 483d 4d98 28bb
000000b0: 2874 813b a28a 97bd 8fb4 2b3c 4a73 d2bb
000000c0: 2468 0dbe b295 763e a866 10bd a924 a83c
000000d0: 16fa 76bc 048a 923d 8688 81bd dd2c 643d
000000e0: f119 8dbd e2f3 8dbd d661 9abc 4da8 7fbd
000000f0: 42bc f7bc 5971 2bbc 50a0 053d f603 313d
00000100: 011e 2bbc 25e6 d3bd a536 5abd e379 083e
00000110: b8b5 71bb 0399 153d 9109 8ebd 15e8 bb3d
00000120: 2d05 a3bd 34e3 833d 9153 a53d d8c7 94bd
00000130: 56dd 123e f084 873d 7600 8e3d 12bb 4c3c
00000140: fcc3 3f3d 4834 943d 9a1c 2e3d bb9a 80bd
00000150: a09a 793c b509 063d 561b cabd d5c1 99bd
00000160: cbef 87bd a8c2 473e 514f f3bc 5cdd 11bd
00000170: 08ab 93bd d58f 743d d408 853d efb0 813d
00000180: 3152 28bd f868 6b3d 187b 2c3d 08d7 8ebd
00000190: c615 0ebb 3219 093e efc2 e2bc ec84 fd3c
000001a0: 9dea cdbc 8ca8 de3d 6fb4 a13d 3716 933d
000001b0: 480f cebc c653 97bd bd7a 9bbc 9c37 a3bc
000001c0: e5be aebb bd42 9f3d 48fb f1bd 9a3a 5ebc
000001d0: 8d0c 5c3d f849 05bd e0b4 babd 4aac 463d
000001e0: 12b3 983c 5d0b debb f4c8 973c 5b9b cabe
000001f0: d90a 44bd 2ae6 9c3c c804 423d 60a6 0cbe
00000200: 0953 69bc 73b1 143c 5e95 4bbc ab84 5b3e
00000210: 3f2e 8f3c 996a 4e3d 2d24 35bc 3a31 bdbe
00000220: e260 9e3d 2287 163d 5d74 62bd ca31 36bd
00000230: be2f cabe 5d65 febc a3d5 653c 2e2b de3d
00000240: 63e4 593d fa75 a43d cbf1 00bd c317 643b
00000250: d87c 37bd ed78 9abd ddbe 8bbb 55b6 e23c
00000260: 7bd9 4f3e a00c f53d 5083 01bd 825f 85bd
00000270: a2f9 8f3d 0a97 693d f191 413d f5b7 1abd
00000280: 9a71 d4bc 9ea7 3a3d cc48 0dbe 5c94 8d3d
00000290: b9ab 413d 97a0 703e 0b08 0bbd 750e 293e
000002a0: 767c 923c ce16 29bd 99d7 043d be20 aebd
000002b0: a5bd c03d 5e2e baba 8552 7fbc b06c 4d3c
000002c0: 1493 2d3e f99f 773e d402 96bc e060 b9bc
000002d0: 7268 4c3d ae5e 853c 6c2f fb3d 3560 9a3d
000002e0: 1191 673d de07 c6bb 0bac f9bc 6e54 d93d
000002f0: 99d3 80ba c17c 833d 4a31 8c3d 2e17 893d
00000300: 83b8 d33c fed8 90bc 7b6e 9b3c ec6e a73b
00000310: d77f 38bc 7bea d23d 0657 e0bc 93cc 2b3b
00000320: 68af 833c 00f9 ac3e 5205 b03d f4f3 0a3d
00000330: 7cbc 733e 25fc d23c fd8f 69bd 06be 7c3d
00000340: b89b 4b3d fddb 443e 264b 6a3e 05de 36bc
00000350: a99c 803c e13c 963d ae5d 6e3d 957c b63d
00000360: d56a 92be 250b 683d 18d7 8b3d 804c 2d3e
00000370: b9a1 f13c 1097 193e d10d 903d 921a 77bc
00000380: 2e00 693e fae4 c8bc 251f 5f3e c61b b4bd
00000390: 7f2e a33c 3aa5 a33d 48cd 7f3d 9f11 19bf
000003a0: 20d6 033e a54e ac3e 9a01 af3d f5a9 393d
000003b0: aa89 543d 4d24 28bd 181d 8ebc ec65 f93c
000003c0: 5b80 793d 1e31 ee3c 8187 b13d 296c cc3d
000003d0: 8b19 68bd 9237 f43c 4469 efbe af17 2b3e
000003e0: 8d27 ea3a bd32 c03c 95c0 fdbc 36ce ca3d
000003f0: cd07 22be b45c 383e 7a94 253d af03 d6bc
0.021246316 0.07042021 -0.041589055 0.3103929 -0.007551809 -0.07888713 -0.022620933 -0.09688154
0.06651913 0.036294315 -0.0230847 0.03909997 0.29519743 0.056502942 -0.07348152 0.050916027
0.036102712 0.05603832 0.068513475 0.038467214 0.018949116 -0.008712609 -0.09093927 0.04239059
-0.29599637 0.022713203 -0.050545834 0.112268955 -0.048174687 -0.05917133 -0.055542964 -0.010646296
0.00056353764 0.0017317137 0.09914953 -0.05912105 0.05155273 -0.10395034 -0.037050404 0.03321909
0.025423534 0.066697545 0.048852224 -0.0025725544 0.0039506145 -0.07399489 0.01048006 -0.006422435
-0.13809258 0.24080542 -0.03525415 0.020525293 -0.015074274 0.07155231 -0.06324868 0.055706847
-0.068897136 -0.069312826 -0.01884548 -0.062416364 -0.030241136 -0.010464036 0.03262359 0.043216668
-0.010444165 -0.10346631 -0.05327477 0.13327746 -0.0036881994 0.036522876 -0.069354184 0.091751255
-0.079599716 0.0643982 0.0807258 -0.0726468 0.14342245 0.06617153 0.06933682 0.012495773
0.046817765 0.07236534 0.042507745 -0.062795125 0.015234619 0.0327241 -0.09868495 -0.07507674
-0.06637534 0.19507849 -0.029700907 -0.035611495 -0.07210356 0.05970748 0.064958245 0.063325755
-0.04109401 0.057473153 0.04210958 -0.06974608 -0.0021680458 0.13388517 -0.027680842 0.030947171
-0.025136286 0.108719915 0.07895743 0.071819715 -0.025153771 -0.073890254 -0.018979425 -0.019923978
-0.005332815 0.07776401 -0.11815506 -0.013563776 0.053722907 -0.032541245 -0.091165304 0.04850415
0.018640075 -0.006776257 0.01852844 -0.39571652 -0.047861908 0.01915272 0.04736784 -0.13735342
-0.0142409885 0.00907551 -0.012425749 0.21437328 0.017478107 0.05039463 -0.011055988 -0.3695162
0.07733323 0.036749966 -0.055286754 -0.044481076 -0.3948955 -0.031054193 0.014027986 0.108480796
0.053196322 0.08030315 -0.03148059 0.0034804202 -0.044796795 -0.07542596 -0.004264696 0.027674833
0.20297806 0.11965299 -0.03161937 -0.06512357 0.070300356 0.057028808 0.04725832 -0.03777309
-0.025933076 0.04557001 -0.13797301 0.06913063 0.047282908 0.2349876 -0.033943217 0.16509421
0.017881613 -0.041281514 0.032432172 -0.08502339 0.09411172 -0.0014204492 -0.015583639 0.01253812
0.16950637 0.24182118 -0.018311895 -0.022629201 0.049904294 0.016280498 0.122649044 0.07537881
0.05653483 -0.0060434183 -0.030477544 0.10611807 -0.0009828686 0.06420279 0.06845339 0.06693874
0.025844818 -0.017681595 0.01897358 0.0051096585 -0.011260948 0.1029863 -0.027385246 0.0026214465
0.016074851 0.33783722 0.08594765 0.033924058 0.2380237 0.025754998 -0.057022084 0.061704658
0.04970905 0.19224544 0.2288023 -0.011161332 0.015699701 0.073358305 0.05819481 0.08910481
-0.2859713 0.056651253 0.06828135 0.16923714 0.02949606 0.14999032 0.07033885 -0.015082018
0.22753975 -0.024523247 0.21789224 -0.0879436 0.019919632 0.07990499 0.06245163 -0.5979251
0.12874651 0.3365375 0.08545227 0.0453281 0.0518891 -0.041050244 -0.017347857 0.030444108
0.060913425 0.029076155 0.086684234 0.099815674 -0.056664985 0.029811654 -0.4676 0.16708253
0.001786457 0.023461694 -0.03097562 0.09902613 -0.15823288 0.18004113 0.0404248 -0.026124803

base.1.conv.4.weight f4 [32]
00000000: 7d62 1e3f 53ed 103f c5df 3b3f 4829 0b3f
00000010: 96ab c43e cc29 3b3f b217 3f3f 2506 033f
00000020: fcb2 b53e 8a8e c03e 4c54 6a3f a0c5 393f
00000030: b06e 023f 851d 023f 1d85 473f c659 183f
00000040: f29e 0c3f e6ed 1a3f eea6 d83e 5446 ff3e
00000050: 93fd 243f 9e67 1b3f 5a21 603f b1b5 0e3f
00000060: 716a 313f 7115 083f fa10 273f 3d79 3a3f
00000070: 26b2 0a3f 13c0 2a3f 9bba 2f3f e6b7 113f
0.6186903 0.5661213 0.7338832 0.54359865 0.3841216 0.7311065 0.7464553 0.5118125
0.35488117 0.3760875 0.91534877 0.72567177 0.50950146 0.50826293 0.7793749 0.59511983
0.5493003 0.60519254 0.42314857 0.49858344 0.64449424 0.6070498 0.8755089 0.5574599
0.6930304 0.53157717 0.6526028 0.72841245 0.5417808 0.6669933 0.6864411 0.5692123

base.1.conv.4.bias f4 [32]
00000000: 3545 dfbd 7ce5 2a3e f5c3 8d3d 9809 e53d
00000010: afb6 1e3e f70a 1bbd bb59 003e e0cb b23e
00000020: d2a5 063d 7eab 45bd 012f 833e c7d1 b23e
00000030: fb68 1d3e 0265 1d3c 7f37 c83e 5842 ae3e
00000040: 0e33 ebbc 772a abbb ac8a 7abc 9e65 1bbb
00000050: 5f7e 1abe 2637 6a3d da6b 5f3e 10b8 8cbd
00000060: 5afe a23e 6e32 98bc 568f a43d ae1c a93e
00000070: 23fa 6c3d e97b 33bd 1f12 503e 18cf 66bb
-0.10901872 0.16689104 0.069221415 0.111834705 0.15499376 -0.037852254 0.1253423 0.3492117
0.032872982 -0.04825925 0.256218 0.34925672 0.15372078 0.009606602 0.3910484 0.3403499
-0.028710868 -0.005223568 -0.015291851 -0.0023711692 -0.15087269 0.0571815 0.21818486 -0.06871045
0.3183468 -0.018578734 0.08035152 0.33029693 0.057855736 -0.04381934 0.20319413 -0.0035218652

base.1.conv.4.running_mean f4 [32]
00000000: 4d77 403e a139 2abe df16 733d b241 733e
00000010: e40c ba3d 08c8 783e abbe 78be 4b6c f33d
00000020: fce9 8cbc 5f90 7fbe c118 41bd 60dd 92be
00000030: bbc7 21bf a63e 2fbe ce51 04bf 69d0 a5be
00000040: 3ae3 5e3e 1c89 073e 6cad 193e 6795 453e
00000050: aa54 c73d a1ca a93e 0ab4 01bf 47af c43c
00000060: ce69 40be eeed 793d 8622 3bbd 2fc0 f1bc
00000070: a8c5 be3d 4216 033f f364 053e d5c7 883c
0.1879551 -0.16623546 0.059347983 0.2375553 0.0908449 0.24295056 -0.24291484 0.118858896
-0.017201416 -0.24957417 -0.047142748 -0.2868452 -0.6319539 -0.17113742 -0.51687324 -0.32385567
0.21766368 0.13235897 0.15007561 0.19295274 0.09732945 0.33162406 -0.5066534 0.02400936
-0.18790361 0.061017923 -0.04568722 -0.029510586 0.09315044 0.5120584 0.1302679 0.01669685

base.1.conv.4.running_var f4 [32]
00000000: 1074 1440 076f 3b40 f5d3 9f3f f92e 873e
00000010: 14cd 1040 4df4 e03f 9481 0a40 1ee0 4240
00000020: 7a7f c03f 8184 bb40 d42e 0a40 8978 c73e
00000030: 3270 6c3f 7765 2140 6a71 0f3f 3848 5840
00000040: de2a 6a3f 8f11 e03e 6ed9 3c41 7a2d 153f
00000050: 70bd 4540 cf56 2540 8a65 0440 1b57 603f
00000060: c330 2b40 796f b83f 3640 8e3f 883e 3f40
00000070: 15f8 c640 9f2b 2240 494e 4e40 6f91 c840
2.319584 2.9286516 1.2486559 0.26403025 2.262517 1.7574555 2.1641588 3.044929
1.5038903 5.859925 2.1591082 0.3895915 0.92358696 2.521818 0.5603243 3.379408
0.9147166 0.43763396 11.803083 0.58272517 3.0896873 2.5834234 2.0686975 0.8763291
2.6748512 1.4409019 1.1113346 2.9881916 6.2177835 2.5339124 3.2235281 6.267753

base.2.conv.0.weight f4 [64, 32, 1, 1]
00000000: 5a29 9cbd 5148 853c af6f 093d 7b91 9fbc
00000010: 2170 3f3d 4170 8ebd 83ca ae3c dc02 623d
00000020: 528a a43b 805d 1abd 59b1 603b 2e91 6cbc
00000030: 1f57 84bd c024 2f3d 6eee d83d 1faf 9d3d
00000040: ddbd bbbd ddbb 66bd 8c26 67bd f3e9 233d
00000050: 5e06 f1bc 18d8 99bd a1a9 00bd d96e 07bd
00000060: ff5e 5bbd a2a0 0a3c 0838 34bd 54af 993d
00000070: de8b 65bd 283f 96bd 6293 093c 3441 3fbd
00000080: c336 32be fd90 473d abf3 bcbc 12e3 3cbd
00000090: 7029 bfbe e085 80be ae46 91be 9cfc a5bd
000000a0: fd0a 8ebe 3e0d ad3d 0833 603a 95e4 003d
000000b0: 2228 12be 1c7c cebd df82 343d 66d8 20bd
000000c0: 8f0a 0bbe 6744 53bd 35b9 8cbd 6743 39bd
000000d0: f3b1 19bd 0a3f ab3d 3de3 c6bd 0250 7cbc
000000e0: 6135 18bd 421e a4b8 b4cd ffbd 991a b9bd
000000f0: bcd1 3dbe 8966 a6bd 8e79 89bd ab40 0fbd
00000100: fcc2 583d e607 b03e a8f5 85bc a4ab 23bd
00000110: c23f 18be 59b8 a23d 5b4d afbe d635 713d
00000120: 7625 a3bd b47a 33be 0738 50be 99a5 f1bc
00000130: b53c 10bd a371 95bc 3a80 a13d e181 42bd
00000140: c348 0bbe 105c 903e 004f 05be 7433 2e3d
00000150: 5622 d53d 0314 333d 0a4a e63d 551f 303e
00000160: 4fb4 23bd 6cac a0be 2b23 03bc 4b88 afbe
00000170: 1c2e a03d bdf5 933e 7d4b 6fbd 6d7d 0cbd
00000180: eb88 62bd b60c 4c3e 4e33 9a3d b840 533e
00000190: fc0e cdbc c80e 59be 8fa8 06bd d06b dabd
000001a0: 74fb dbbd c3ff 3c3e 2459 ad3e f65c 003e
000001b0: 1e8c 60be 9302 71bd 4f59 25be 7623 f1bd
000001c0: 41f6 693d e8dc a8be c0dd 4f3c 5c81 92be
000001d0: bf5e b9bc 3bf7 18be cc2e a03d 4ee9 183c
000001e0: 1454 bfbe 8b21 56bd 9648 16be 2f52 a13d
000001f0: 2031 08be 50b6 f63d 06d0 1abe 072b 9b3d
00000200: 343f 003e 5e3d 1ebe 9646 94be 05cc be3d
00000210: 44d6 80be fc6f 69bd 4b92 403c 9c2b 59bd
00000220: 1343 aabe 8b1a fe3d 4fc4 57bd c72a 04be
00000230: 5b8f 833d e805 c33e d4a4 a33e 6a2b 08be
00000240: 070e 82be b67e 54bd 1a5b 933e fda3 903d
00000250: 4919 173e 8497 b2bd 1aa1 6c3c 4f9e b13d
00000260: f240 15bd 7da6 233e b109 823d fd0e 3b3e
00000270: 07ca 04bd 2475 72bd 187e 42bd 12ad c8bb
00000280: e3a5 13bd 5124 7a3d aedb b0bd 21b0 f43d
00000290: 7526 933c eeb8 723d 5fdd 31be affe 553a
000002a0: 4b0d 9dbd 0c9c 99be 0e84 90be 5d1c 223e
000002b0: 4f41 21be dccc 3c3d ca2a c1bd 45a1 97bc
000002c0: aba1 15be 5a5f c83d 12a1 633d 1199 1b3e
000002d0: c120 b53d 80c6 f73d 2daa 92be bdcc d7bd
000002e0: 773b bf3e 91c2 08bd dea3 ea3d 90c2 933e
000002f0: 2517 233e 8f69 83be 1db2 68bd 2a78 9cbd
00000300: 8da0 b13e 4162 02be 5926 1f3d ab7e b23e
00000310: c896 d23c 0e2e 183e 41bd cfbd 4765 743d
00000320: 5f58 ac3c e82f 4dbe 6e1f 723e e7c3 74be
00000330: 9717 4c3d 0242 993d f5b7 843c fe3b cb3d
00000340: 943d 5fbe aff5 423e 772b c4bd ff98 b7bd
00000350: dac8 bd3b c495 953d 3420 cdbd 8612 89bd
00000360: ebfe 153e 0303 84bd 9173 94be 8c64 353e
00000370: 2c74 5dbe e7ea f2bd e54f 2fbd d9f3 e73d
00000380: 6089 e5b9 f369 1abb d734 b7bd b872 493d
00000390: cd7f f03b b21e cc3d 341e 203e b528 dbbd
000003a0: 2d3f fd3c eb2e 193d e7e9 11be 7d4d 3e3e
000003b0: bdf4 9ebd 5a36 a73a 9dd3 db3d 1ba6 273e
000003c0: 708a 2fbe 821a ce3d a3a8 54bd e8b3 b1bc
000003d0: b96c 10be c4e0 f2bd 7570 2d3e 884c a43c
000003e0: aa67 893d 961a 5cbc fb5e 2c3d 064f 143e
000003f0: 010a 12bd fb20 39bc 582a 033e 0373 e0bd
-0.07625075 0.016269835 0.033553775 -0.01947855 0.046737794 -0.069550045 0.0213368 0.05517851
0.005021372 -0.037686825 0.0034285395 -0.01443891 -0.064619295 0.042759657 0.10592352 0.07699417
-0.09167073 -0.056331504 -0.056433246 0.040018033 -0.029421981 -0.0751192 -0.03141177 -0.033064697
-0.053557392 0.008461149 -0.043998748 0.07504144 -0.05604159 -0.07336265 0.008396955 -0.046693042
-0.17403702 0.048722256 -0.023065409 -0.04611499 -0.37336302 -0.2510214 -0.28374237 -0.08104822
-0.27742758 0.08449791 0.0008552526 0.031467993 -0.14273122 -0.10082266 0.04407012 -0.039268874
-0.13578247 -0.051578905 -0.06871263 -0.045230296 -0.03752322 0.08361633 -0.09711311 -0.015399935
-0.03716028 -7.825765e-05 -0.12490407 -0.09038276 -0.18537039 -0.08125026 -0.06712638 -0.03497378
0.052920327 0.34381026 -0.01635249 -0.03995861 -0.14868072 0.07945318 -0.34238705 0.058889233
-0.079661295 -0.17527276 -0.20333873 -0.029497908 -0.035214145 -0.018242663 0.078857854 -0.047487143
-0.13601975 0.28195238 -0.13018417 0.04252954 0.1040694 0.043720257 0.112445906 0.17199452
-0.039966878 -0.31381547 -0.00800399 -0.3428367 0.07821295 0.2889842 -0.0584216 -0.034299303
-0.055306356 0.19926724 0.07529317 0.20630157 -0.02503156 -0.21197045 -0.032875594 -0.10665095
-0.1074132 0.1845694 0.3385707 0.12535462 -0.2192845 -0.058840346 -0.1614735 -0.11774342
0.05711961 -0.32981038 0.012687147 -0.28614318 -0.022628186 -0.14938061 0.07821426 0.009332968
-0.37368834 -0.052278083 -0.14676127 0.078770034 -0.1329999 0.12046492 -0.15118417 0.07576566
0.1252411 -0.15453097 -0.28960103 0.093162574 -0.25163472 -0.056991562 0.011753629 -0.053020105
-0.332543 0.124074064 -0.05267745 -0.12906943 0.06423827 0.38090444 0.3196169 -0.13297811
-0.25401327 -0.051878653 0.28780442 0.07062528 0.1475574 -0.087203056 0.0144427065 0.08672773
-0.03643889 0.15981479 0.06349505 0.18267436 -0.03241923 -0.059193745 -0.047483534 -0.006124147
-0.036046874 0.06106979 -0.086356506 0.119476564 0.017962674 0.059258394 -0.17369603 0.0008163256
-0.07668551 -0.30001867 -0.2822575 0.15831132 -0.1574757 0.046093807 -0.094319895 -0.018509516
-0.14612453 0.09783812 0.05557353 0.15195109 0.08844138 0.12098408 -0.2864546 -0.105370976
0.37350056 -0.033388678 0.114570364 0.28859377 0.15926798 -0.25666472 -0.056810487 -0.07640107
0.34692803 -0.12732793 0.03885493 0.34862265 0.025706664 0.14861318 -0.10143519 0.059666898
0.021038232 -0.20037806 0.23644802 -0.23902856 0.049827185 0.07483293 0.016200999 0.09923552
-0.21800834 0.19039033 -0.09578603 -0.089647286 0.0057917656 0.07303956 -0.10015908 -0.06692986
0.14648025 -0.06445887 -0.2899442 0.17714137 -0.21626347 -0.1186121 -0.042800803 0.11325807
-0.00043780636 -0.0023561686 -0.08945625 0.04918167 0.007339454 0.09966792 0.15636522 -0.107011236
0.030913914 0.03739826 -0.14249383 0.18584247 -0.07761524 0.0012757287 0.107337214 0.16371958
-0.17142653 0.1006365 -0.051918637 -0.021692231 -0.14103974 -0.11859277 0.1693743 0.020056024
0.067092255 -0.013434073 0.042082768 0.1448327 -0.03565407 -0.011299367 0.12809122 -0.10959437

base.2.conv.1.weight f4 [64]
00000000: d0e1 a03e 4f37 283f 422e 253f 7e41 4d3f
00000010: 943c 2b3f 6e71 2b3f c732 2f3f 8c4b 043f
00000020: 096d 113f d113 1b3f 594d 213f fb03 fc3e
00000030: 9b58 3e3f 5f6d 273f 812b 0a3f c648 2e3f
00000040: 23c8 293f 4ef3 953e d139 413f 27b2 283f
00000050: 53e4 0c3f a2d6 113f b73c 293f 9538 273f
00000060: 1b72 c83e 4382 b73e 2184 313f 2dad 333f
00000070: 29ba 353f 28cf 1c3f d230 1f3f 1b23 443f
00000080: 2ec6 2c3f 5caf bf3e 26cc 223f 7f2b 483f
00000090: 40da 443f abd6 163f 3be3 153f c793 273f
000000a0: 5955 243f 70f6 3a3f 6e67 1d3f c8aa 263f
000000b0: 51b3 3f3f 1433 1c3f a6e3 183f 0e1a 373f
000000c0: d926 393f a510 9f3e 63bc 2a3f 67a9 193f
000000d0: 3a44 433f 2fbc 193f 679b 2a3f 75a9 2a3f
000000e0: 784a 2b3f defd 203f 4fc5 1e3f 4f4f 263f
000000f0: f9a3 133f 10c2 163f 7c4e 2d3f 334c 1f3f
0.3142228 0.65709394 0.6452371 0.8017806 0.6688931 0.66969955 0.68436855 0.51677775
0.56807 0.6057711 0.6300865 0.49221787 0.7435395 0.6540126 0.5397263 0.68079793
0.6632101 0.2928719 0.75478846 0.6589684 0.55035895 0.5696813 0.6610827 0.6532071
0.39149556 0.3584157 0.6934224 0.7018612 0.7098718 0.61253595 0.6218387 0.76616067
0.674899 0.37438476 0.63592756 0.7819137 0.76895523 0.5892131 0.5854985 0.65459865
0.6419273 0.73032284 0.61485946 0.6510434 0.7488299 0.6101544 0.59722364 0.7152413
0.723249 0.31067386 0.66693705 0.6002411 0.7627598 0.6005277 0.66643375 0.6666482
0.66910505 0.6288737 0.6201982 0.64964765 0.5767208 0.58889866 0.6769788 0.62225646

base.2.conv.1.bias f4 [64]
00000000: 2780 b9bc d188 b9bd 894f 9abd 4e92 43bd
00000010: 1a26 ccbc f99f edbd a9f2 0fbc 7882 fc3d
00000020: 8e9e d6bd 3670 dd3d c173 193e aa4c 32bd
00000030: 892b ff3c 3f52 09be 0661 6a3d 0290 0dbd
00000040: 301c b5bc 6802 b23c b9ef 49be 0199 41be
00000050: c9af 563e be27 96be 8ae0 a93d 4065 903d
00000060: cff1 003b 8776 273d 06db 673c 319e 633d
00000070: 11d4 22bd 88dc a7bd 2e2e 183e f81b 073b
00000080: e8bc 93bc 8f4a 913c a90e 0d3d 3245 e13a
00000090: 6dd9 a8bc 8d99 a93d 2cd7 663d 40e8 393e
000000a0: 7eb1 6cbd da74 613d f59d a0bd deda e83d
000000b0: ce1d 483e 7b5a e8bb 41fa aa3d 09a4 52bd
000000c0: 7985 c0bd 644f ca3c 92e6 4b3d 0e49 babd
000000d0: 8dc9 02bc 2eae 0f3d 6e61 383d 3174 003d
000000e0: cbe7 003c b4f5 19be 0081 aa3d befe d9bd
000000f0: eacf b53d a67a 173d 9b5e d4bc dd0d 7ebd
-0.022644116 -0.09059299 -0.075347014 -0.04774695 -0.024920512 -0.11602778 -0.008785882 0.123295724
-0.10479461 0.10812418 0.14985563 -0.043530144 0.031148689 -0.1341028 0.057221435 -0.034561165
-0.022108167 0.021729663 -0.19720353 -0.18906023 0.20965494 -0.29327196 0.082947806 0.07050562
0.001967538 0.04088452 0.01415134 0.055570785 -0.039753024 -0.0819636 0.14861366 0.0020616036
-0.018034413 0.017735748 0.03443781 0.001718676 -0.02061149 0.082812406 0.056357548 0.18155003
-0.057786457 0.05504308 -0.07842628 0.113698706 0.1954262 -0.0070908642 0.083485134 -0.051425967
-0.09400458 0.02469606 0.049780436 -0.09095965 -0.007982624 0.03507822 0.04501479 0.03136081
0.007867764 -0.15035135 0.08325386 -0.10644291 0.08877547 0.0369822 -0.025924018 -0.06202494

base.2.conv.1.running_mean f4 [64]
00000000: 44ce bebe e36f 12bf e9d4 34be 38a2 663c
00000010: 02db 1bbe db35 8abe e0a0 773c 39e8 a43e
00000020: c3e6 23be 134b 3a3d 9b3a 843e 3d55 7cbe
00000030: 745a df3d d47b e9bd 1ff8 623d 1898 06be
00000040: f594 b1be 9d39 fe3e a139 cabe c414 453b
00000050: dc02 7e3e f870 17be a986 2f3e 2a70 c13d
00000060: 98dd 51be c139 2bbd bdb7 5c3e 78fa a23e
00000070: b52c 0abe 0d3c 1cbf 1e2a 033f 69e2 d1bd
00000080: 167c 22be 1baf 833d 8770 96ba 1419 c33e
00000090: 8a38 233e 8199 183e a89d 113f 7e7e 493d
000000a0: 9845 2bbe c850 0dbe e470 3abd dda5 b13e
000000b0: 58a9 f9bb f624 c7bc 6c83 433e 4d54 b1be
000000c0: 8a42 7ebe 48af 993d 49fd 16be 5c08 a3be
000000d0: f3f9 ae39 39ac 523e 9bd0 4dbe c538 813e
000000e0: be50 a5be 92a2 b1be 067b d03d 2f93 43be
000000f0: 9191 86be c5ef fa3c bd2f 3bbe 66fb e7bc
-0.37266743 -0.57201976 -0.17659344 0.014076762 -0.15220264 -0.26994213 0.015114039 0.32208422
-0.16005997 0.045481753 0.25825962 -0.24641891 0.109059244 -0.114005715 0.055412408 -0.13143957
-0.34683958 0.4965333 -0.39497092 0.0030072192 0.24805778 -0.14789188 0.17141213 0.09445222
-0.20494688 -0.041803125 0.21554466 0.31831717 -0.13493617 -0.6102913 0.5123614 -0.102482624
-0.15867648 0.06429883 -0.0011477628 0.3810507 0.15939537 0.14902307 0.5688119 0.049192898
-0.16725767 -0.13800347 -0.045517817 0.34696856 -0.0076190643 -0.024309617 0.19093102 -0.3463463
-0.2483007 0.07504135 -0.14745058 -0.31842315 0.00033374093 0.2057351 -0.20099108 0.25238624
-0.32288164 -0.34694344 0.10179715 -0.19099115 -0.26282933 0.03063191 -0.1827993 -0.028318118

base.2.conv.1.running_var f4 [64]
00000000: 283c e13e bd00 f23e 3026 f33e e8d7 9f3e
00000010: e27f be3e 063c 513e 3e83 143e 67e1 8e3e
00000020: 664f 283e db33 bd3e 2245 733e d9b5 c03e
00000030: ab49 e03d f66e c33e 459e 493e ea9e ee3d
00000040: aeca ee3d 6bae 663e acf4 e43e fe23 393e
00000050: 0472 e43d 703b e33d 8f20 693e cbbd 953e
00000060: 27d8 833e 97e4 c33e 8d10 f83d 78db 073f
00000070: 10ad cb3e 23b7 aa3e 93a7 583f 9c34 f23e
00000080: e8e5 fd3d 1feb cb3e f8da 433e c3ec 903e
00000090: a9df a33e ad27 fd3d bd3d 1e3f 6c3f 863e
000000a0: 27a5 da3e 7041 493f 3112 133e 4914 633e
000000b0: 355b 8e3e 1948 153e 6eb1 243e eb78 243f
000000c0: 6283 f03d b221 983e 5106 8d3e 1b0c 323e
000000d0: 1f8a b23e 0da8 183e 5137 813e 8038 fc3d
000000e0: 32f1 2d3e e37c 773e c739 e63e 0041 133f
000000f0: f1a3 a83e f028 0e3f 443a 443e ede3 233e
0.43991208 0.47266188 0.47490072 0.3121941 0.37206942 0.20433053 0.1450319 0.27906343
0.16436538 0.36953625 0.23756841 0.3763874 0.10951551 0.38170594 0.19689281 0.11651404
0.11659752 0.22527473 0.4471792 0.18080136 0.11154559 0.11095321 0.22766326 0.29246363
0.2575085 0.38260338 0.12112532 0.5306926 0.39780474 0.33342847 0.846307 0.47305763
0.12397367 0.3982782 0.19126499 0.28305635 0.32006577 0.12361083 0.61812955 0.26220262
0.42704126 0.78615475 0.14362408 0.22175707 0.2780396 0.14578284 0.16083309 0.64247006
0.11743809 0.29713207 0.27543882 0.1738743 0.34871003 0.14907856 0.25237516 0.12315464
0.1698654 0.24168734 0.44965956 0.5752106 0.32937577 0.55531216 0.19162852 0.16004916
