weights/EXTD_48.pth (torch_old, 443717 bytes, 134 tensors)

base.0.0.weight f4 [64, 3, 3, 3]
00000000: 4b08 d3bd 7e47 22be b589 05be 3181 36be
00000010: fb73 84be 144b 60be 32a9 13be 5cc0 3abe
00000020: 8fce 3ebe b9ed 313e c887 053e 34a2 473e
00000030: fa48 173e f617 423e 5b74 5c3e 82f0 083e
00000040: c719 543e 197f 3f3e 32a9 0abb a4e3 dabc
00000050: 45e0 e4bc 4389 8e3c d2d3 c83c 8f5a b93b
00000060: f409 06bd d09a 8abb b5a7 93bb 4188 eebd
00000070: 3cb9 1bbe 2717 10be 047b 15be a492 62be
00000080: 6a2d 4dbe 651e 33be 6ada 2cbe 46d1 46be
00000090: f182 e93d fd2e e43d f3db e83d cd33 053e
000000a0: ca94 cd3d b5f5 fb3d 5313 043e a8e5 db3d
000000b0: d975 ea3d ba3e 86bc 4c89 203d 6da3 063d
000000c0: c27a 773d a10a 113e b9d2 053e bdb1 ae3d
000000d0: 0922 eb3d c784 e83d fb98 b8bd e693 86bd
000000e0: e937 d03d be03 30be ec62 0abe e9c7 bebc
000000f0: bc82 273d 314a 963c dd68 3abd 443a 20be
00000100: 6253 0ebe 912e 4b3b ae4f 55be 4951 40be
00000110: 8d71 7cbd 458e a93d 6608 973d f540 cbbc
00000120: 5197 00bd 53ed 69bd 0bfa c03d 87c8 edbd
00000130: 17ca e2bd d576 253c 8f90 c93d 83ee 813d
00000140: d5f9 05bd 3926 c43d 6162 9c3d f413 c33d
00000150: db67 c13d 7a26 c83d 7f45 913d 7234 1e3d
00000160: 9651 b03d c6f0 4f3d 192b c13d c7f0 d33d
00000170: 646e 713d 82b7 993d 79f1 143e 5890 e53d
00000180: ffb5 9d3d 6bea ce3d afbb 173d b44e a2bd
00000190: ae96 91bd 0e05 b2bd 874e 37bd 83f6 00bd
000001a0: bc21 fdbc 07dc 80bd bbf9 13bd cfab 0bbd
000001b0: b2ea 6b3d b5db bebd 17dd 77bc 820e d2bd
000001c0: 0fd6 f7bd 1a56 873b d441 a9bd 0276 fcbc
000001d0: 330a ec3d 0d1a 373c bfa9 bdbd 51d0 34bd
000001e0: 6b0f 1ebe 902f 67be ebb1 33bd 5ab3 d3bd
000001f0: d3b4 04be ea7f 103d 7ce8 18bb dce9 8abd
00000200: 18fc 5dbd 6da7 81bd 57c7 eabd 299b fe3c
00000210: 3383 02be e680 69bd 7f60 593d cab9 09bc
00000220: 7664 65bc 03cc c63c fa9c aabb dc6a d738
00000230: af0c 153c 3887 14bc 9a4a 69bc 265e 073b
00000240: 6154 07bb 975c 83bb e0a9 ab3c 79e1 a23b
00000250: c7ac 973b 46f4 d73c 140d 8b3c d7e7 b43c
00000260: 8599 433c f070 9e3a e91c 74ba 4f3c e4bb
00000270: 3801 853c 96ed 3a3c 8611 373c 00be a7bc
00000280: f23a 753c 2cc6 a0bc 62a6 4b3d edc4 963d
00000290: 205e 9f3d 49d3 693d 2787 9c3d 890a 9c3d
000002a0: 46a0 5f3d f074 f53c 5a29 6c3d 8537 e73c
000002b0: 5a14 71bc 1ffa 6bbc 8d79 173d 369d 323b
000002c0: 73bb 873b 608a 3d3c 55ee d03c fdd8 913c
000002d0: 5082 953d 920e 073d 8c53 e33c 7937 833d
000002e0: 4926 a93d 2ede 5e3d d20c 9f3d 7cd6 313d
000002f0: c735 853d f7f1 02bd b1a5 97bd 23ba 203e
00000300: 3544 133c 12a8 7fbe 5cb4 823e 4a44 243d
00000310: 7a47 41be eadd ce3d ed97 51bd 0535 bcbd
00000320: 7c02 613e 472b 88bc 0828 98be 0561 983e
00000330: 6000 8b3c de87 75be 78b6 223e 3ac8 b5bc
00000340: 30dd 05bd 8c38 293d 9028 de3c 8b9c 25be
00000350: f81a 213e a4e6 273d c875 cebd f71a 593d
00000360: fe29 17bd 76fd 1fbd e67d 14bd c8f5 5ebd
00000370: 76bb 5cbd bf1f 49bd 67c4 27bd a4b4 87bd
00000380: 3fc3 f4bc 74bd af3b 07c7 353c 06d7 bbbc
00000390: a273 6fba f81c 71bb 4e68 46bc d426 07bd
000003a0: cf8b 36bd 59ea 23bd 20b5 933d c9b8 053d
000003b0: 665d 163c 5452 863d 4af7 293d 7deb 313d
000003c0: 8da5 723d 232d 773d 35d0 0c3d 1e28 323e
000003d0: dc9c 013e 3dae b53b 7a1e 3b3e b4d7 543e
000003e0: 61db e03d 00fb a63c 9235 9e3d 0032 9f3d
000003f0: 1861 803d 998c 853d b4f1 91bd 5f28 643d
-0.10304316 -0.15847585 -0.13040812 -0.1782272 -0.25869736 -0.2190364 -0.14420012 -0.18237442
-0.18633483 0.1737584 0.13040078 0.1949547 0.14773932 0.18954453 0.21528761 0.13372996
0.20712958 0.18700828 -0.0021157977 -0.026719876 -0.027938971 0.017399436 0.024515066 0.0056565474
-0.032724336 -0.004229881 -0.004506076 -0.11647082 -0.1520738 -0.14071332 -0.14597708 -0.22126251
-0.20036855 -0.17492063 -0.16880193 -0.19415769 0.11401928 0.11141775 0.11370077 0.13008042
0.10038145 0.12302724 0.12897997 0.10737163 0.11448259 -0.016387332 0.039193437 0.0328707
0.060419805 0.14164211 0.13068666 0.08529995 0.11481101 0.1135345 -0.09013554 -0.06571178
0.10166914 -0.17188928 -0.13514298 -0.023288684 0.040896162 0.018345924 -0.04551016 -0.15647227
-0.13898996 0.0031003098 -0.20831177 -0.18781008 -0.061631728 0.08279089 0.07374649 -0.024811247
-0.031394307 -0.057111096 0.09422692 -0.11610513 -0.11073702 0.010099133 0.098420255 0.063443206
-0.03270896 0.09577603 0.07635952 0.0952529 0.09443637 0.09772964 0.070933335 0.038624234
0.08609311 0.05076673 0.09432048 0.10348659 0.058943167 0.075057045 0.1454524 0.11209172
0.077007286 0.101033054 0.037044223 -0.07925168 -0.07108818 -0.0869237 -0.044752624 -0.031485092
-0.030899875 -0.06291967 -0.036126833 -0.034099396 0.05759687 -0.093192495 -0.0151283955 -0.102566734
-0.12101375 0.004130137 -0.08264509 -0.03081799 0.11525383 0.011175645 -0.09260892 -0.04414398
-0.15435569 -0.22576737 -0.043870848 -0.10336943 -0.12959604 0.03527824 -0.002333193 -0.067828864
-0.054195493 -0.06330762 -0.11463802 0.031079846 -0.12745361 -0.057007693 0.05307054 -0.008406112
-0.014001003 0.024267202 -0.0052067013 0.00010271903 0.009097262 -0.009065442 -0.014238978 0.0020655482
-0.002064966 -0.0040088403 0.020955026 0.004970726 0.004628751 0.026361596 0.01697401 0.022083206
0.011938457 0.0012088101 -0.0009312169 -0.006965197 0.016235933 0.011409184 0.0111736115 -0.020476341
0.014967667 -0.019625746 0.049719222 0.07361779 0.07781625 0.057086263 0.07642966 0.07619197
0.054596208 0.029962987 0.057656623 0.028224716 -0.014714325 -0.014402895 0.036981154 0.002725435
0.0041422187 0.011568636 0.02550427 0.017803663 0.07300246 0.03297288 0.0277498 0.06407065
0.082592554 0.054411106 0.07766117 0.04341744 0.06504398 -0.031969037 -0.0740465 0.15696006
0.00898843 -0.24966457 0.25528228 0.040104188 -0.18874922 0.101009205 -0.05117028 -0.091898
0.21973604 -0.016622199 -0.2971804 0.2976152 0.016967952 -0.2397761 0.15889919 -0.022190202
-0.032681644 0.041313693 0.027118951 -0.16172998 0.15732944 0.04099144 -0.10081059 0.05300423
-0.03690528 -0.03906008 -0.03625288 -0.054433614 -0.053889714 -0.04910254 -0.04095879 -0.06626251
-0.029878257 0.0053631607 0.011094815 -0.02292968 -0.0009134357 -0.0036790948 -0.012109829 -0.032996014
-0.044566926 -0.040018413 0.07212281 0.032646928 0.009177541 0.065586716 0.0414956 0.04343747
0.059239913 0.06034578 0.03437825 0.17398116 0.12657493 0.0055444525 0.18273345 0.20785409
0.10979343 0.020383358 0.077250615 0.077732086 0.06268519 0.065209575 -0.07126179 0.055702563

base.0.1.weight f4 [64]
00000000: 57eb bf3e 6a83 e43e 7db9 0b3f ff8b df3e
00000010: ca9e b63e 129c 8f3e b56b bd3e c62c 183f
00000020: b8e8 a93e 9c28 003f 0163 8f3e ce7e f13e
00000030: 4140 183f 8a36 a23e b388 953e 0d2d 183f
00000040: 9764 8f3e 3121 b03e 2e9f f73e 9d96 013f
00000050: 1a4c bf3e 022c 8f3e 71f7 cf3e e3ff be3e
00000060: 3a90 0a3f 6a36 963e eac7 e63e f481 a63e
00000070: 142f eb3e 376b c73e 412b 193f 3def bd3e
00000080: b4cd ee3e 2559 8f3e 38fa ac3e fa82 953e
00000090: be1e ff3e d2aa 8f3e 9c72 ce3e 8f72 d13e
000000a0: 9917 dc3e 6892 e93e 5053 f13e 5789 0c3f
000000b0: b0fc db3e 2684 8f3e 9c6f 1f3f 0874 b43e
000000c0: 551d af3e a6dd 113f bccf 103f 52d9 1a3f
000000d0: 421f f53e 5e88 9d3e 6078 163f 35aa 093f
000000e0: 9174 0e3f 0fb8 df3e e653 d53e 4215 023f
000000f0: 6d62 153f dd78 d83e 9adf b03e db3c 923e
0.37484238 0.4463151 0.5457991 0.43661496 0.3566802 0.2804876 0.36996236 0.5944332
0.33185363 0.50061965 0.2800522 0.47167057 0.59473044 0.31682235 0.29205856 0.5944374
0.2800643 0.34400323 0.48363632 0.5062044 0.37362748 0.27963263 0.4061847 0.373046
0.5412632 0.2933839 0.45074397 0.3252102 0.45934355 0.38948986 0.59831625 0.37096587
0.46641314 0.279977 0.33784652 0.2920149 0.49828142 0.28060013 0.40321815 0.40907714
0.42986754 0.45619512 0.47133875 0.54897064 0.42966223 0.2803051 0.6227968 0.35244775
0.34202066 0.56978834 0.5656698 0.60487854 0.4787541 0.30768102 0.5877743 0.5377534
0.55646616 0.43695113 0.41665572 0.50813687 0.5835331 0.4227971 0.34545594 0.28562054

base.0.1.bias f4 [64]
00000000: 5c5a 853d ca3b 813e cfe2 b9bd f7a3 c4bd
00000010: cf09 09bf 0f03 d6ba 583e a9bc 7981 8c3d
00000020: e132 aa3a fc28 a03d 5602 2bbb 6684 e53d
00000030: da39 a33d 6528 b83a 9970 793b b825 28bd
00000040: 7c95 bfba 41c4 80bd 5535 a13d a2b6 a1bd
00000050: 5f98 1a3e b3fd bfbb 8b09 00be 211e cbbe
00000060: fc0a 323e 6e63 3f3b b568 453d b52a 13bc
00000070: e48f 443e c07f 26be b01e 97be 8cdd ecbc
00000080: 5a1c 81be 1a52 14bb 3de1 a13c 9b76 29ba
00000090: c8ea 823d 9014 40bb dde8 5ebd 323e 16bd
000000a0: 5e58 f6be a8cd e1be d9d8 5c3d 36f2 49bd
000000b0: fd31 74bd d757 4cbb 2406 e23b 1344 24bd
000000c0: 7dee 043d 2717 7cbd fce1 ad3c 7f80 e73d
000000d0: ffb3 753b 1c89 923c 8f79 07bc a56b 753e
000000e0: a271 c23d 8318 ab3b bb9a 50bd d020 a03e
000000f0: 7dc1 cb3c 2518 b7bd cac2 5bbc 128c 12bb
0.06511375 0.25240928 -0.090764634 -0.09601586 -0.5353059 -0.0016327816 -0.02065961 0.068606324
0.0012985134 0.07820317 -0.0026093922 0.112068936 0.07970019 0.0014050124 0.0038061498 -0.041051596
-0.0014616693 -0.062874325 0.078715004 -0.078961626 0.15097187 -0.0058591007 -0.1250364 -0.39671424
0.17387003 0.0029203552 0.04819556 -0.00898235 0.19195515 -0.1625967 -0.295156 -0.028914236
-0.25216943 -0.0022631944 0.019760722 -0.0006464512 0.06392437 -0.0029309131 -0.054421294 -0.036680408
-0.48114294 -0.44102216 0.05391774 -0.049303256 -0.059617985 -0.0031180286 0.0068977047 -0.040103983
0.032454003 -0.061545517 0.021225922 0.113038056 0.003749132 0.017887644 -0.008268728 0.23966844
0.0949433 0.005221428 -0.050928812 0.31275034 0.024872536 -0.08940152 -0.013413141 -0.002236132

base.0.1.running_mean f4 [64]
00000000: 677c cfbf ecfc 2ebf 2e80 8640 ecb7 1cc1
00000010: beb5 0a40 dfc9 b2c0 1def e0c0 e3a7 1a3f
00000020: 5e85 adc0 f50e a2c0 3ca1 2841 18db 0c40
00000030: 7896 3640 dbba e340 8be7 5ec0 a8f9 fa3f
00000040: ecd5 42c1 fbf4 6540 2fd8 30c0 097e 3cc0
00000050: 1bb4 07c0 960b ad40 49df 1741 5ad4 5640
00000060: 73b7 3abf 24d3 f7bd 4bcf 5bc0 cfc5 0d41
00000070: 98c4 783f bb73 d8c0 b945 fb40 7465 3840
00000080: ad63 9540 b6ec 3741 d356 12c0 c797 7dc0
00000090: 7937 cc40 788f c2c0 3eca 3441 a1ca 9ec0
000000a0: 4506 0c41 10b0 eb40 6dba ebc0 1f71 ebbf
000000b0: e36e 9540 b6aa b140 9184 dd3f 7983 c640
000000c0: 5c3a 0ac1 591f 9640 0d2c 0fc0 1129 4cc0
000000d0: 22a6 5c40 65a9 00c1 f615 0dc1 843d bbbf
000000e0: 994e cbbf 1463 acc0 ec34 0140 467f 8a40
000000f0: ae46 7440 cad6 8d40 7288 fbc0 e405 95c0
-1.620984 -0.6835468 4.203147 -9.794903 2.1673427 -5.5871425 -7.0291886 0.60412425
-5.42253 -5.064326 10.539364 2.2008724 2.852934 7.1165595 -3.4828823 1.9607439
-12.177227 3.5930774 -2.7631948 -2.9451926 -2.1203678 5.4076643 9.492013 3.356711
-0.7293617 -0.12100819 -3.4345272 8.860793 0.9717498 -6.7641273 7.852261 2.8811922
4.6684175 11.495291 -2.2865493 -3.9623888 6.3817716 -6.0800133 11.299376 -4.962235
8.751531 7.365242 -7.366507 -1.8393897 4.669786 5.5520887 1.7306081 6.203549
-8.639248 4.6913266 -2.2370636 -3.1900065 3.44764 -8.041356 -8.817862 -1.4628148
-1.5883361 -5.3870945 2.018855 4.3280363 3.816814 4.4324694 -7.860406 -4.656969

base.0.1.running_var f4 [64]
00000000: e885 9e43 fe7e ff43 c29f 8044 1cea 4245
00000010: 05c1 0c44 f240 7944 acf9 4345 2e03 1943
00000020: 16ae 3945 fc49 c444 a627 8845 88b2 9843
00000030: 04c0 0344 0333 2f45 5ad1 4d44 3c1a d643
00000040: 7e2a 1446 5a5a 4544 019b 2e44 9ca6 1d44
00000050: 006f db43 71de ac44 8172 3945 1c60 1044
00000060: 098b ad42 904f 9343 82f5 1745 eea4 0e45
00000070: be12 b542 8d80 3c45 158f 2045 525d 0d44
00000080: de41 5a44 db19 a945 8e00 9344 1dc9 ae44
00000090: 9a53 3245 380b 0445 9c9a 8945 5013 bd44
000000a0: 97a0 2d45 056c 0645 cd75 1545 4c70 b544
000000b0: 223a 4b44 ea8d c244 5876 b643 0d02 bf44
000000c0: c918 2f45 e185 0d44 8030 3a44 f109 8043
000000d0: 56fd 2644 d398 7945 059f 7b45 872c 2943
000000e0: eba9 7544 54b8 b844 7196 d643 9a87 4044
000000f0: 3625 e943 493a 9244 8d61 8645 1fab ba44
317.04614 510.99213 1028.9924 3118.6318 563.0159 997.0148 3135.6045 153.01242
2970.8804 1570.312 4356.956 305.39478 527.00024 2803.1882 823.2711 428.20496
9482.623 789.41174 698.42194 630.6033 438.8672 1382.9513 2967.1565 577.5017
86.77155 294.62158 2431.3442 2282.308 90.536606 3016.0344 2568.9426 565.4581
873.0292 5411.232 1176.0173 1398.2848 2853.225 2112.7012 4403.326 1512.6035
2778.0369 2150.7512 2391.3625 1451.5093 812.9083 1556.4348 364.92456 1528.0641
2801.549 566.09186 744.7578 256.07767 667.9584 3993.5515 4025.9387 169.17393
982.65497 1477.7603 429.17532 770.1188 466.2907 1169.8214 4300.194 1493.3475

base.1.conv.0.weight f4 [64, 1, 3, 3]
00000000: f926 bd3d 0ab9 50be 1836 d0bd 9fec 85bc
00000010: a73d afbe de64 d1bd 8e8c 143e 23f0 8abd
00000020: ce33 783d 3a1d c8bd 7d2f a23e af3f cdbc
00000030: af3f af3d 5085 ce3e d4c2 2c3d 5444 2dbe
00000040: 690d 033d 9cf3 33be ddfb 4bbc a6b0 0fbc
00000050: 1b4b a6bd 047d fdbc 6e2c bf3e e2a7 c53e
00000060: 6568 ae3d 9143 fabe 44fe 4fbe 9749 d23d
00000070: f0ac 603e 3cf5 0f3e 1742 273d 6266 573e
00000080: 91ae c33d fa6d 0cbd b5e1 923d a117 e23c
00000090: 10fd 3dbe dbaf 34bf ef73 d3be 9fe6 a2bd
000000a0: 83c8 3d3c 80d8 283e 0c46 593c 6997 4e3f
000000b0: b8d7 d93e dad4 e73c 766d 3c3b a70f e53a
000000c0: 2fee 95bb 9402 f8bc 81fa ac3c ec4f b13c
000000d0: dc38 1bbc 2aec 143c e776 833d 809b d63d
000000e0: 3192 4e3d 8558 de3d 7108 d33d 80f1 e13d
000000f0: ab5a 673d 489b 9e3d 06c4 7c3d a0b9 8cbc
00000100: 00f9 5bbc 3f30 3f3c 43a6 b83e 3ebf 1bbf
00000110: 431a 773d c23a 743c 8733 7ebc 3091 20bc
00000120: bf7e f2bc 2098 1fbd eea1 94bd fec3 87bd
00000130: fdab 8abd a6ae bfbd c46f 2abd 176a b8bd
00000140: f1dc 37bd 66b3 b6be 2fba b4be e694 d9bd
00000150: a333 87bc 0d75 80be 186b 19be c9b9 d83e
00000160: ef9c 103f ea40 823e ad79 c2bc df60 43bc
00000170: 320f 2f3d e25f a4ba bf09 073d 3176 2dbc
00000180: 1986 8bbc a25d 593a 2c46 7b3c 5bce 7bbe
00000190: b155 e0be a6a4 73be 6d47 093c 161a eabc
000001a0: f834 c93d fc78 ea3d 0f11 b73e 5d61 c83e
000001b0: 1522 e4bd 2a68 63bd 19bc 88bc 75d8 2cbd
000001c0: b177 0b3f 9c1d f53c 8804 88bc 1c3e 1bbb
000001d0: 2e86 d8bd 883f 2a3c 0a43 433d e1dc c83d
000001e0: 7ccb 42bd 3013 14bb ef79 f03c c0ae cebd
000001f0: 7380 b3bc db92 553c a354 65bd d328 0ebd
00000200: f4e2 ab39 a683 86bd d83e c6bc 22a0 123b
00000210: 7ade 20bd ec5f b63b 144e 733c 5e1f 393e
00000220: 887c a63e d704 b83e 254e c9bd dd79 a2bd
00000230: 602d 803d 6b08 83be a3b4 a1be 034b 49be
00000240: 8708 0fbd e034 72bb 1bbd 09bd 6290 23bc
00000250: bb42 54bc 478e f5bb 2d73 36bd 4ac7 45bd
00000260: 7c73 013c c41e b33d ee9e 7f3d 827f 9c3d
00000270: 1d0c 623d 34d0 923d 8ff6 d23d 27df 6f3d
00000280: a26f 743d 9b77 cc3d bc6d 953d 1fe0 f33e
00000290: bac0 df3e a3ad 9dbe 30ec 25be 09cf 3f3e
000002a0: d0e2 2fbe 74c3 bfbe 8be2 fcbd a0bd 7d3d
000002b0: a37e 81be e1d6 03be 38bd ea3c f0d1 86be
000002c0: 7b32 26be 3707 373d 768a 37be abab 72bd
000002d0: 8890 c4bd 14ca 153e e304 31bd d361 8f3d
000002e0: 0e56 873e ff43 e53d d5b7 0abc 5c28 5a3e
000002f0: 768b 993d d384 0f3d 0d9d 48bc 6770 b53c
00000300: a0fe 293b 9d08 4e3c a480 803c 9846 b03c
00000310: c60f c73c 97aa fd3c dfb1 283e 7ba8 f43d
00000320: 6089 283d 85a8 5a3e 99f8 133e b98b 333d
00000330: b51c 3dbd c5c7 88bd 58d2 1abe 89e8 aebe
00000340: b29d a33d 34b9 1f3f a481 e4be 121b e7bd
00000350: 1e9a 0f3f dfc3 95be a022 1ebe f84b b73d
00000360: b757 843c c87a bcbd 2b57 e3bb 9789 17bd
00000370: b520 293f 60aa cebc accc 88bc 9597 cfbe
00000380: cad0 15bd 74e5 8c3d a7b1 0fbb f858 0ebb
00000390: bbdd 98bb 07b7 92bd 2df3 d53a 0753 a03c
000003a0: 28fb dabc 00da c53c dd62 863e 836b 383e
000003b0: ca1e 9f3d 98a2 ae3d 4d02 25bd add6 bbbd
000003c0: bff7 2f3c 6f26 5dbe f39d 40be 95a7 f1ba
000003d0: 9313 77bd 489e 68bd f085 c2bc 9cb2 f5bd
000003e0: 2f27 92bd c7e8 98bb 8233 8cbd 82ce f1bc
000003f0: a4ba 3dbc 5e5f 803c 0a3f 553c 0c54 923d
0.09235949 -0.20383087 -0.101665676 -0.016348181 -0.34226725 -0.10224317 0.14506742 -0.06784084
0.06059628 -0.097711995 0.31676856 -0.02505478 0.085570686 0.40336084 0.04217799 -0.16920596
0.03199521 -0.17573398 -0.012450186 -0.008770144 -0.08119794 -0.030943401 0.37338585 0.38604647
0.085160054 -0.48879674 -0.20311838 0.102679424 0.2194097 0.14058393 0.040834513 0.2103515
0.0955478 -0.03428457 0.071719564 0.027599158 -0.18553567 -0.70580834 -0.41299388 -0.07954144
0.01158345 0.16488838 0.013261329 0.80699784 0.42547393 0.028299738 0.0028751767 0.0017475978
-0.004575513 -0.030274667 0.021115543 0.021644555 -0.009474006 0.009089509 0.06419163 0.10478878
0.050432388 0.108567275 0.103043444 0.110323906 0.056482952 0.07744461 0.06171038 -0.017178357
-0.013426065 0.011669218 0.36064348 -0.6083869 0.06032778 0.014906587 -0.015515215 -0.00980024
-0.029601453 -0.038963437 -0.07257448 -0.066291794 -0.067710854 -0.093594834 -0.041610494 -0.0900461
-0.04488844 -0.35683745 -0.35298297 -0.10624103 -0.016504114 -0.25089303 -0.1498226 0.42329243
0.5648946 0.2544015 -0.02373966 -0.011924951 0.0427391 -0.0012540782 0.03296828 -0.010587261
-0.017031716 0.00082918454 0.0153365545 -0.24590437 -0.43815377 -0.23793277 0.008378846 -0.028576892
0.09824556 0.11448857 0.35755202 0.39136782 -0.11139313 -0.05551926 -0.016691254 -0.042198617
0.5447951 0.029921345 -0.016603723 -0.0023688143 -0.10572468 0.010391124 0.047671355 0.09807754
-0.04755734 -0.0022594444 0.029355017 -0.10091925 -0.021911835 0.013035501 -0.05598892 -0.0347069
0.00032784755 -0.06568079 -0.024199888 0.0022373279 -0.03927467 0.005565634 0.014850158 0.18078372
0.32516885 0.35941193 -0.09829358 -0.079334 0.062586546 -0.2559236 -0.31583127 -0.19657521
-0.03492024 -0.0036957785 -0.03362761 -0.009983154 -0.012955363 -0.0074937674 -0.044543434 -0.04828576
0.007901069 0.087461025 0.062407427 0.07641508 0.055187333 0.07168618 0.103009336 0.058562424
0.059676774 0.099837504 0.07296321 0.47631928 0.43701726 -0.30796537 -0.1620338 0.18731321
-0.17176366 -0.37453806 -0.12347897 0.06194842 -0.2529193 -0.12874939 0.02865468 -0.26332045
-0.16230194 0.044684615 -0.17923912 -0.059245747 -0.0959788 0.14627868 -0.04321755 0.0700108
0.26432842 0.1119461 -0.0084666805 0.21304458 0.07497303 0.03503878 -0.012244475 0.022148324
0.0025939122 0.012575296 0.01568634 0.021518037 0.024299514 0.030965133 0.16474102 0.119461976
0.041146636 0.21353348 0.14450301 0.04383442 -0.046169955 -0.06678728 -0.15119302 -0.34161785
0.07989062 0.6239197 -0.44630158 -0.1128446 0.5609454 -0.29251 -0.15442896 0.08950037
0.016155107 -0.09203106 -0.0069378815 -0.03699645 0.6606553 -0.025227726 -0.016699158 -0.40545335
-0.03657607 0.06879702 -0.0021925957 -0.002172051 -0.004665104 -0.07163816 0.0016323082 0.01957084
-0.026731089 0.024151802 0.26247302 0.18009762 0.077695444 0.08527106 -0.040285397 -0.091718055
0.01074022 -0.21596693 -0.18810253 -0.0018436784 -0.0603214 -0.056791574 -0.023745507 -0.11996958
-0.0713638 -0.004666421 -0.06845762 -0.029517416 -0.011580143 0.015670475 0.013015518 0.07144937

base.1.conv.0.bias f4 [64]
00000000: 7de2 d03d 1141 c63e cbcb a6be 80e2 33bc
00000010: e483 da3c 0c2c ef3c c399 49bc b406 363d
00000020: 00ec c5ba 11fa 163e 9b3e 8f3c 0fa3 283e
00000030: b6a8 013e 539f 243d 11a5 53bc bb87 eabc
00000040: 82dd 04bb f548 b0bd e388 003e 2d3d 933e
00000050: 0acc 063e fb7e a5bb 0520 bbbd 14a3 6a3d
00000060: c64a d1bc c1c7 813d 64a4 aa3d e82d 813d
00000070: 9eda 273c 37f3 5dbe 8059 6e3e 5c66 8a3d
00000080: e4c6 343e 239a b7bb 8d6c 313d 046f 48bc
00000090: 8a23 ebbd 7513 693b 6806 b63d da21 6c3d
000000a0: 5cb4 3a3e 7b0a d13d 2105 e0bd 153f 7dbd
000000b0: dc17 4ebe 6bbf 263c 07f4 e43c a9e3 053e
000000c0: 9207 a3bd 880a 8c3d 7804 a33e 72cf 4b3d
000000d0: 54f4 dc3d e3dd 323d 4e59 f3bc 6a06 2b3c
000000e0: f4fc 503d d444 64be 1538 243e 8ee1 483d
000000f0: 92fb 593e 1318 0bbd e5e2 22bc 9682 c63b
0.10199449 0.38721517 -0.32577357 -0.010979295 0.026674218 0.029195808 -0.012304726 0.044439986
-0.0015100241 0.1474383 0.017485907 0.16468452 0.12662014 0.040191006 -0.012917773 -0.028629174
-0.002027363 -0.086076654 0.12552218 0.2875761 0.13163772 -0.0050505376 -0.091369666 0.05728443
-0.02554835 0.06336928 0.08332136 0.06307584 0.0102449935 -0.2167481 0.23276329 0.06757805
0.17653996 -0.0056030913 0.043316413 -0.012233499 -0.11481388 0.0035564576 0.08887941 0.05764947
0.18232864 0.10207077 -0.10938478 -0.061827738 -0.20126289 0.010177474 0.027948393 0.13075127
-0.07960428 0.06837946 0.31839347 0.049758382 0.107887894 0.04366864 -0.02970567 0.010438541
0.051022485 -0.22291881 0.16037019 0.04904323 0.21287373 -0.033958506 -0.009941791 0.0060580475

base.1.conv.1.weight f4 [64]
00000000: 8ae3 ba3e 98a1 123f 91a2 173f 36c9 d93e
00000010: dc84 f63e 3a54 8b3e 1304 bf3e c89d 0b3f
00000020: 273f a73e ce9b e53e 67e6 8b3e 7af0 f53e
00000030: 6a0b 1b3f ff20 9f3e 4414 953e 3097 0f3f
00000040: 55ef 903e 4575 bd3e 68b7 013f 356b 1d3f
00000050: e447 ac3e e690 913e f3f9 d73e 689a ec3e
00000060: bab1 083f 032e 933e 6773 e93e 5d97 a93e
00000070: 351e d53e 6fa4 003f e528 163f b3bb c23e
00000080: 6b1c d23e 24b1 8e3e 0831 ac3e d754 963e
00000090: 5c1f f83e e3a7 8d3e 42e9 da3e 41a3 d83e
000000a0: ba8c df3e 722f ce3e b17d eb3e f110 0b3f
000000b0: 1676 f43e 6f83 8a3e 163a 083f 9cc9 ca3e
000000c0: b9ab a73e 1365 063f fd2c 1d3f e418 0a3f
000000d0: 7fc7 f23e cb56 983e a676 0f3f 1dd9 033f
000000e0: 2f73 fa3e 7eb0 e93e 3c3b c23e 25ff 043f
000000f0: dbc1 1c3f 6576 dc3e b6a8 b03e bd39 933e
0.36501724 0.5727782 0.5923243 0.42536324 0.4814824 0.27212697 0.37307796 0.5453763
0.3266537 0.44845432 0.2732422 0.48035032 0.6056429 0.31079862 0.29117024 0.5609007
0.28307596 0.37003532 0.5067048 0.6149171 0.33648598 0.2843086 0.42182884 0.46211553
0.5339619 0.28746042 0.45595858 0.33123294 0.4162461 0.50250906 0.5865615 0.38033828
0.41037306 0.27869523 0.33631158 0.29361603 0.48461425 0.2766715 0.42756087 0.42312053
0.43662053 0.40270573 0.45994332 0.54322726 0.47746342 0.270534 0.5321363 0.3960694
0.327482 0.52497977 0.6139677 0.5394423 0.47417828 0.29753718 0.5604042 0.51503164
0.48916003 0.45642465 0.37935817 0.5195182 0.612333 0.43059078 0.34503716 0.28754988

base.1.conv.1.bias f4 [64]
00000000: 978c 283d 7bfb 053e 7717 5ebd 0f12 16bb
00000010: 61e2 193d 2984 173c 0b10 4ebc e746 743c
00000020: bf47 6dbb 0be1 463d 3a80 573c 18dc 463d
00000030: e750 2f3d d276 4a3c 622a 833b 0b67 10bc
00000040: 37c3 ba3b 2ab0 e3bc 71b9 963d 6501 303e
00000050: 42b6 f03c f6df bebb b0bf cdbc 5397 273d
00000060: c5ae e9bb 2dda b43c 611d 1d3d bbf2 ee3c
00000070: 244f 3e3c f6c0 d5bd 505d 833d 0b43 b83c
00000080: d71d 4d3d 89aa 84bb de48 d43c d09a aeba
00000090: 2004 abbd 3867 89ba 8203 3a3d 7078 1e3d
000000a0: 6f9a 8c3d 6bea ab3d b781 25bd 1953 babc
000000b0: 2dc4 75bd 42d1 9938 a7fc 693b fea0 7f3d
000000c0: ef05 ccbc b082 813c a3b9 e63d 85fe 603c
000000d0: d6d3 183d 893d e93c ffa5 c7bb a083 8c3c
000000e0: c6eb 593c 5a69 6dbd f62f 843d ddf4 773c
000000f0: 6683 703d 38f5 aabc 1874 e4bb 5c58 c739
0.041149702 0.13084213 -0.054221597 -0.0022898947 0.037569407 0.009247818 -0.012577067 0.014909483
-0.0036206094 0.04855446 0.01315313 0.04854974 0.042801764 0.0123574305 0.004002855 -0.00881363
0.005699541 -0.027793963 0.07359589 0.17188032 0.029383782 -0.005825038 -0.025115818 0.0409158
-0.00713143 0.02207669 0.038358096 0.029168477 0.011615548 -0.10437195 0.06414282 0.022492906
0.050077286 -0.0040486497 0.025913652 -0.0013321284 -0.08350396 -0.0010483032 0.0454135 0.038689077
0.06865393 0.08394321 -0.04040691 -0.022744702 -0.06000154 7.334586e-05 0.003570357 0.062409393
-0.024905173 0.015809387 0.11265876 0.013732557 0.037311397 0.028471725 -0.0060927863 0.017152607
0.013300842 -0.0579618 0.0645446 0.015134064 0.05871906 -0.020868883 -0.0069718473 0.0003802207

base.1.conv.1.running_mean f4 [64]
00000000: 6fa3 9cbd ab29 f93d c7cd 81bd f4e0 8a3d
00000010: 740d b5bd efe3 9f3d 7f57 1c3e 2b56 453d
00000020: 7de6 b13d 9ed4 923d da79 223e 35fd 99bd
00000030: 2dae cabd 314d a23d 4aa7 2bbe 6130 afbd
00000040: e176 3dbe fb91 d23d 4b5e 01be 1c08 61be
00000050: 36ef 753d 02dd 5d3e e52a 993d 9df0 afbd
00000060: f0e7 e6bc 308c aa3d 5eb1 e8bd 748b dbbd
00000070: 33bb 6ebc ab52 123e 6c60 a03d 0802 abbd
00000080: 4c6c 053d 6961 013e f20b cbbd 35a5 ac3d
00000090: 5d74 86be 03d0 ec3d 43b9 0ebe 42df 1fbe
000000a0: cb28 403d 57f0 3fbd 48f9 c5bd 8264 0d3e
000000b0: f918 cc3d 73be a03d 7b4d 163d 2297 fabd
000000c0: 6f53 bbbd 624d 763d ea89 cdbd 76c9 1b3d
000000d0: dc12 c9bd 9b0c 263e 42c4 8a3d 078d 513c
000000e0: b139 0a3d c8f0 98bd 463a d33c 544c 553d
000000f0: 1ad7 c4bd 6360 0f3e 34ff 2b3e aa02 973d
-0.0764836 0.12166151 -0.06338077 0.06781188 -0.088404566 0.07807147 0.15267752 0.04817788
0.0868654 0.0716946 0.15866795 -0.075189985 -0.09896503 0.07924879 -0.16763034 -0.085541494
-0.1850238 0.1028175 -0.12633626 -0.2197575 0.060042582 0.21666339 0.074788846 -0.08590815
-0.028186768 0.0832752 -0.11361955 -0.10719958 -0.014570999 0.14289348 0.07830891 -0.08349997
0.032573983 0.12634815 -0.09914388 0.08429948 -0.26260653 0.115631126 -0.13937859 -0.1561251
0.046913903 -0.046860065 -0.09666687 0.13807872 0.09965701 0.07848825 0.036694985 -0.122358575
-0.09146773 0.06013239 -0.10036071 0.038033925 -0.0981805 0.16215746 0.067757145 0.012789971
0.033746425 -0.074678004 0.025784623 0.052074745 -0.0961134 0.14001612 0.16796571 0.07373555

base.1.conv.1.running_var f4 [64]
00000000: cf05 a73c 9ad4 5f3d ef48 623c 8ed8 9e3c
00000010: 6cfb d53c 883d cb3c 99a0 cf3d 40ec 753c
00000020: 3838 003d a4ca b03c add5 b93d 9141 973c
00000030: c5f9 0c3d f2c3 b63c a568 eb3d d80e c93c
00000040: 6431 0f3e 76d3 0c3d f911 743d f6a9 533e
00000050: b1c8 603c 75c2 2c3e 881b aa3c 1030 e33c
00000060: a4fc 0a3d 2e91 c83c c56d 5c3d 971a 203d
00000070: b9e1 e93b 049c af3d 1241 a93c 5e65 c03c
00000080: 5a0c b63b b4d3 653d 97e0 253d 342e f33c
00000090: fd0d 7d3e a0cc 633d 8c6b 933d 44aa de3d
000000a0: aa31 0f3c 5990 1e3c d8fd 233d b501 9d3d
000000b0: 3158 0f3d 4e88 b53c cad4 c63b b586 533d
000000c0: 239f 123d 718e 513c 6b05 283d c3df 093c
000000d0: eb52 ff3c a93d d73d c156 a03c 0741 533c
000000e0: f4cf f93b 25be c23c bd04 043c f206 0c3c
000000f0: bafb d73c 1bb7 913d b672 f53d c0c3 bd3c
0.020388512 0.054646112 0.013811334 0.01939037 0.026120864 0.024809614 0.101380534 0.01500994
0.031303614 0.021581002 0.090739585 0.018463882 0.034417886 0.02231023 0.11494569 0.02454321
0.13983685 0.034381352 0.059587453 0.20670304 0.013719724 0.16871054 0.020765081 0.027732879
0.033932343 0.02448329 0.053815622 0.039087858 0.007137504 0.085746795 0.02066091 0.023485836
0.0055556716 0.0561101 0.04049739 0.029685117 0.24712367 0.055615067 0.07198247 0.10872319
0.008739868 0.00967797 0.040037006 0.07666341 0.034996215 0.022159722 0.006067847 0.05164214
0.035796296 0.012790308 0.041020792 0.008415165 0.031167468 0.105098076 0.019572617 0.012893922
0.007623667 0.023772309 0.00805777 0.008546578 0.02636515 0.07115003 0.1198477 0.02316463

base.1.conv.3.weight f4 [48, 64, 1, 1]
00000000: a84d 89bc b930 1ebe 148c a6ba 8735 3abd
00000010: 324b a6bd 9d91 6fbd 25e8 6b3c fc4c 1c3e
00000020: 9068 bfbd 05ce 9ebd bb24 8dbc b7c7 a6bd
00000030: 4b60 433e 4b40 6dbd 4884 a13c 14ce f43c
00000040: 78cd 72bd 50c9 dcbd b3a3 323c 7b89 883e
00000050: 5740 babc 9d35 b83c 968f e4bd 65cb 8b3d
00000060: 82f8 2d3d 3286 6c3d d345 b93c 5fdb a73d
00000070: ee6a b83d db15 39be 9620 b13c 1f6f f63d
00000080: 60a3 3dbd 45ea b43c a440 823d 86d1 82bd
00000090: 062e c73d c4a5 82bd 2503 68bc 7d3c ffbd
000000a0: 9759 92bd ba87 bfbd 84b2 bb3d cbe0 8d3d
000000b0: ccb1 363e 1d3a 373d b28b dcbd 5895 cc3c
000000c0: 3bfe 09bd fc31 0fbe fed9 7b3e 2cff 903d
000000d0: 93a8 3d3e 0ce0 653d a565 1dbd 2119 3a3d
000000e0: b2c9 c6ba 4e7c d23d a710 a63c 68e9 c7bd
000000f0: afd0 973e 3f24 d8bd b9da 2c3d 50bf 56bc
00000100: 291f c7bd c709 343d 0227 c13d c276 37bd
00000110: 404c bfbc 989b 6cbd 10f3 dd3c 6774 2ebe
00000120: 9b5e aebd a1c0 37bb 0ef9 253c 6ec5 a7bd
00000130: d82b bc3d 111c 5b3d c22d 02bc f714 953c
00000140: 41a9 85bd 5aa0 65bc cbb0 063e 3c88 bc3d
00000150: fe1b 663c 49e2 14bd c456 fbbc 11e6 883d
00000160: 99b5 ae3d 55b0 4c3d b872 bcbb fa6b 583d
00000170: 6177 42be 7733 9cbd ebb2 fdbd 41df f8bb
00000180: e1cb 313d 4a6e 763c 7688 76bc 93fc 4c3b
00000190: 1736 c23d 4586 253d 0093 9cbd f007 bdbc
000001a0: fe3e 153e 1d57 66bc 07d3 453d a664 6d3d
000001b0: be07 083d 792e 29bd 0880 0fbd 1c88 e3bc
000001c0: 7dd6 633d 830e 36be a814 b3bd c665 0d3e
000001d0: 2812 42bd 9466 03bd 5df3 59bd 4cf7 553d
000001e0: d2f0 993c ea3d 1dbd 6ed7 34bc 932e 0a3e
000001f0: ddbb f23d 6b29 d3bb c574 3a3d 455f 7fbc
00000200: 3f70 9d3d 7a41 073e 64a0 28be 66c8 253d
00000210: 5927 b93c 888c bdbc e88c 33bd 6196 90be
00000220: 05af f5bc fbaf 8fbc db02 4fbd 19f6 bb3c
00000230: 6944 c1bc 1e9c 3fbd 12a9 a1bd 6636 70bd
00000240: 2d79 81bd 42b0 bdba 5c5e 363b e7dc 44bd
00000250: 58e6 f2bc dadb 41bd 90be ca3d d5e1 e63d
00000260: 789b bd3d e421 033d 0325 b93d afc2 5bbd
00000270: 6114 5fbe 413f 143d c06e b2bc ca86 f2bd
00000280: ae4d e9bd ab6a 7b3c 7654 8bbd b8c0 f6bc
00000290: aa06 2e3c 2828 41bd 469f f03d c5f7 8ebd
000002a0: 5cb4 003e cd34 c7bc c574 89bd df4c e03d
000002b0: 5303 62bd 5b78 813b 3dab 80bd 4f3a 663d
000002c0: 66db e3bc b3ec 0038 35ad 6a3d 8217 e9bd
000002d0: c2ee 04bd 6cd1 3abd 711f 573e af72 313e
000002e0: 3c11 bebd 9e55 aa3c 453a 8fbd 05a6 19bc
000002f0: 6687 e73c 897b ab3d 5042 393d 0505 263b
00000300: dc0a 143e c51f 97ba dd87 473e 9f59 e53d
00000310: 26ac 213e 1621 483d 5550 2bbd f473 7b3d
00000320: 14f2 873b 2dcc 95bd 3a27 353d 252a 7bbe
00000330: b1d0 513e 1a9f 713d 4b05 79bd ef79 1fbe
00000340: 441b 83bd 2dfe d13c 19ab 143d e530 c1bd
00000350: b327 89bd 578d 59bd 6c39 b6bd 426e 60bd
00000360: e1f6 933d 776a 2f3d 880c 97bc 9176 8e3d
00000370: 593c a43d 4a28 13bd 7e4f 863c 70c1 623d
00000380: b30f 003e abf0 253d a2c5 7e3b dbe7 ecbc
00000390: b269 97bd e5c7 1abc b710 45bd a69c d6bc
000003a0: 7b2c fdbc caa2 bdbd 4645 9f3d 96c5 eb3c
000003b0: 8d63 76bc a83e 3cbc bd71 3d3d 0a99 d8bd
000003c0: c271 65bd 68c6 b03d 3646 03bd 8d05 7dbd
000003d0: 08ca e33d c706 71bc a8f3 173d 0f80 38bb
000003e0: b832 f7bb 0145 923d 1879 a33e 2f35 3bbd
000003f0: 07f1 1dbd 037d d83c 96c4 333c 80ff 653c
-0.016760662 -0.15448274 -0.0012706541 -0.045461204 -0.08119811 -0.058488477 0.014398609 0.15263742
-0.093461156 -0.07754139 -0.017229429 -0.08143561 0.19079702 -0.057922643 0.019716397 0.029883422
-0.05927798 -0.10780585 0.010903287 0.2666739 -0.022735758 0.022486502 -0.11160199 0.06825904
0.042473324 0.057745166 0.022616303 0.081961386 0.0900477 -0.18074743 0.021621983 0.120329134
-0.046298385 0.022084365 0.063599855 -0.0638762 0.09725575 -0.063792735 -0.014160906 -0.12462709
-0.07145994 -0.0935206 0.091649085 0.069276415 0.17841262 0.044733156 -0.10768832 0.024973556
-0.03368972 -0.13983911 0.24594876 0.0707992 0.18521337 0.05612187 -0.038427014 0.04543412
-0.0015166311 0.102776155 0.020271612 -0.097613156 0.296514 -0.105537884 0.042200778 -0.013107136
-0.0972274 0.043954637 0.09431268 -0.04479099 -0.023351789 -0.057765573 0.02709344 -0.17036591
-0.08514138 -0.00280384 0.01013018 -0.081919536 0.0918805 0.053493563 -0.00794548 0.018198473
-0.06526423 -0.014015282 0.13153379 0.09205672 0.01404476 -0.036348615 -0.030681022 0.06684507
0.08530731 0.04997285 -0.00575098 0.05283735 -0.18990852 -0.07627004 -0.123876415 -0.0075949733
0.043407325 0.015040943 -0.015047183 0.0031278476 0.09482973 0.040411253 -0.076452255 -0.023075074
0.14574811 -0.014058855 0.048296954 0.057957314 0.03321051 -0.041304085 -0.03503421 -0.027774863
0.055624474 -0.17778973 -0.08744174 0.13808355 -0.047380596 -0.032080248 -0.053210605 0.052237794
0.01879159 -0.038389124 -0.011037691 0.13494329 0.11852238 -0.0064441464 0.045521516 -0.015586679
0.07687425 0.13208571 -0.16467434 0.040474318 0.02260177 -0.0231383 -0.04383555 -0.2823973
-0.029990682 -0.017539969 -0.050539833 0.022944497 -0.02359219 -0.046779744 -0.07893576 -0.05864563
-0.063219406 -0.0014472085 0.0027827239 -0.04806223 -0.029650852 -0.047328807 0.09899628 0.11273543
0.09258169 0.032014742 0.090402626 -0.05365246 -0.21785118 0.036193136 -0.021781325 -0.11842115
-0.11391769 0.015345256 -0.06803219 -0.030121192 0.010621706 -0.047157437 0.11749129 -0.06980852
0.12568802 -0.02431717 -0.06711725 0.10952162 -0.05517895 0.003951115 -0.06282661 0.05620795
-0.027814578 3.073802e-05 0.05729409 -0.11381437 -0.03245426 -0.045609877 0.21008088 0.17328905
-0.09280631 0.020792779 -0.06993536 -0.009377961 0.028262805 0.08373172 0.045229256 0.0025332582
0.14457268 -0.0011529854 0.19485421 0.111987345 0.15788326 0.04885968 -0.041824657 0.06138988
0.004148731 -0.07314334 0.044226862 -0.24527796 0.20489766 0.05898962 -0.060796063 -0.15573858
-0.06401685 0.025633896 0.036295984 -0.09433154 -0.06697025 -0.053113308 -0.08897671 -0.05479265
0.07224823 0.042826142 -0.018438593 0.069562085 0.08019323 -0.035927095 0.016395327 0.055360258
0.12505989 0.040512722 0.0038875123 -0.028919151 -0.07393207 -0.009447073 -0.048111644 -0.026197743
-0.030904999 -0.09259565 0.07776885 0.02878074 -0.015038383 -0.011489548 0.046251047 -0.10576065
-0.05601669 0.08631593 -0.03204938 -0.06177287 0.11122519 -0.0147110885 0.037097603 -0.00281525
-0.007543888 0.07142068 0.31928325 -0.045705017 -0.03855994 0.026426798 0.010972163 0.014037967

base.1.conv.4.weight f4 [48]
00000000: cf13 2b3f 5d67 b83e fca5 fd3e cb68 103f
00000010: 1e25 d03e 88ce 083f c800 c63e 1f46 f13e
00000020: c1c8 c43e cf50 003f eb76 e43e 76f6 d43e
00000030: 73ef ba3e 5f22 fc3e 98d5 f33e 596e 1a3f
00000040: 218b ae3e d1ed ea3e ec83 ed3e d896 0a3f
00000050: 5fe1 053f e91d d83e edd2 043f 943b f83e
00000060: 9a62 093f 7714 db3e 14e1 f13e d8ae d93e
00000070: 6dc2 0b3f 7659 023f 1a2d f33e f04d d83e
00000080: fc79 c83e 3d72 ca3e a56f de3e 5214 fb3e
00000090: 542c d53e 0ca7 c83e 1bf1 fa3e 934f f93e
000000a0: 4b3c b53e d2f4 303f 2ed3 153f 2b70 e33e
000000b0: 508b f03e 58b6 f33e a182 df3e be42 ef3e
0.668271 0.3601636 0.495407 0.564099 0.40653318 0.5344014 0.3867247 0.4712381
0.38434413 0.50123304 0.44621977 0.41594285 0.3651081 0.49244973 0.47623897 0.6032463
0.34090522 0.45884565 0.4638971 0.5413642 0.52297014 0.4221032 0.5188435 0.48482955
0.5366608 0.4278905 0.47242033 0.42516208 0.54593545 0.50917757 0.47495347 0.42246962
0.39155567 0.39540282 0.43444553 0.4903894 0.41635382 0.39189947 0.49012074 0.48693523
0.35397562 0.69123566 0.5852536 0.44421515 0.46981287 0.47600055 0.4365435 0.46730608

base.1.conv.4.bias f4 [48]
00000000: 9952 b83c c190 70bd 6759 c0bd 008d 84bd
00000010: 9c3c 10bd 0702 6bbd 7896 b2bd 522b e23b
00000020: 86a1 bf3d 64ec 36bd 186d 3fbc f144 e93d
00000030: d102 17bd cb07 d8bb 9440 14bd 68bf 25bd
00000040: ce81 c4bb 950a cdbd 121d 683d 3f85 fb3c
00000050: e78f a73c 0f61 cb3d 2598 40bd c49a 11be
00000060: c6ea bbbc 5fc2 b6bc 1a61 43bd dfbe 74ba
00000070: a392 a93d a6cb 35bd a428 1cbe e0d3 883d
00000080: 89ab 523c 7ac7 e2bc c343 323d 0c21 bebb
00000090: 925f b0bd c6fb c23d aa35 c63d 2d3b 06be
000000a0: 789b d5bd 99f9 8c3d d4c3 bfbd 622b 9d3c
000000b0: a097 8f3c 062b 4e3d 19fa 84bd db86 14bd
0.022500323 -0.058731798 -0.09392052 -0.06472206 -0.03521405 -0.05737498 -0.08720106 0.006902137
0.0935698 -0.044659033 -0.011683725 0.11390103 -0.03686792 -0.006592726 -0.0361944 -0.040465742
-0.0059969192 -0.10011784 0.05666835 0.030703185 0.02045436 0.09930622 -0.047020096 -0.14219195
-0.022939097 -0.02230948 -0.047700025 -0.00093363033 0.08279922 -0.044383667 -0.15249878 0.06681037
0.01285828 -0.027683008 0.043521654 -0.0058022793 -0.086119786 0.09520678 0.09678204 -0.13108511
-0.10430044 0.068835445 -0.09363523 0.019185726 0.017528355 0.050334 -0.06493015 -0.03626142

base.1.conv.4.running_mean f4 [48]
00000000: beb6 373e a40a 21bd 360e b0be 0c7a 773d
00000010: 0dbc d0be 01f1 4d3e 2dd5 a7be 5ff1 a1bd
00000020: cea5 96bd 6343 f3be 126e 313d d4f0 e4be
00000030: 9dd4 fe3d a7b0 8a3e 3eb9 cdbe ee50 5fbe
00000040: 8caa b4bd 4e2d f13e 59b2 a5be d8d1 72be
00000050: 0358 503e 49fb a6bc ee20 aa3e 67f9 693e
00000060: 49ac c63e f9de 21bf dc2a a5bd 8e49 f83d
00000070: 0701 78be c22b d43e e8a8 923e a3e6 313f
00000080: af81 423e eb86 89bd 1f7f f7bd 8e17 f03d
00000090: 519a a13e 400c 1a3e cd55 bd3c cfc4 bc3e
000000a0: 3474 073d 362c e5be 1aa7 713f d76b dabd
000000b0: ad74 5cbf 9cdb 3cbe f811 08bf 3f79 5e3e
0.17940804 -0.03931679 -0.34385842 0.060419127 -0.4076847 0.20111467 -0.32779828 -0.07907366
-0.073558435 -0.4751235 0.04331786 -0.44714987 0.124428965 0.270879 -0.4018039 -0.21808216
-0.08821592 0.47104877 -0.3236263 -0.23712862 0.20346074 -0.020383494 0.33228248 0.22849046
0.38803318 -0.63230854 -0.080648154 0.121234044 -0.24219142 0.41439635 0.2864449 0.6949255
0.18994783 -0.06715187 -0.12084793 0.11723243 0.31563047 0.15043736 0.023112202 0.36868903
0.033069804 -0.44760293 0.943956 -0.106651 -0.86115533 -0.1844315 -0.5315242 0.21725939

base.1.conv.4.running_var f4 [48]
00000000: a817 873f d9e0 5e3e 0e2d 883f 08a6 183f
00000010: cc07 783f e82b f23f 2d17 8d3e 2b93 e53e
00000020: 58d2 853f ad36 da3e 32a9 b03f 21b0 a23e
00000030: 0ba1 7e3f a45d e53e 8d89 e93e 1ff5 103f
00000040: bfcf a43e 82b4 113f 3f41 983e d068 c93e
00000050: 878c 3a3f f97f 953e c178 893f 9d87 503f
00000060: de7d 003f e5aa 463f c673 933e 8bda 9c3e
00000070: 1e8b e43e 727b 8f3e ac4a ff3e 990e b93e
00000080: 570a a13f c1bb 243e 89fc 843f a3f9 0e3f
00000090: 44e1 bf3e 94d0 083e e477 f73e a0c9 133f
000000a0: bae7 423f 4b2e 153f 62ec 113f dfaa a43f
000000b0: 38a0 093f 3042 563f cd42 4a3f a1a0 803f
1.0554094 0.2176546 1.063875 0.59628344 0.968869 1.8919649 0.27556744 0.44838843
1.0454817 0.4261984 1.3801634 0.31775 0.9946448 0.44798005 0.45612755 0.56624025
0.32189748 0.5691606 0.2973728 0.39337778 0.7287068 0.29199198 1.0739976 0.8145693
0.5019206 0.77604514 0.28799266 0.30635485 0.44637388 0.2802387 0.49861658 0.3614395
1.258128 0.16087247 1.0389568 0.55849665 0.37476552 0.13360816 0.48333657 0.5772953
0.76134837 0.5827376 0.57001317 1.2864646 0.537601 0.83694744 0.7900818 1.004902

base.2.conv.0.weight f4 [96, 48, 1, 1]
00000000: 7703 70be 7a2e 353c 79e2 283d 3690 143e
00000010: 94f5 1ebd 652d e73d d94e 273e 710f e1bd
00000020: 7312 13be 0999 013c afc1 6e3d bfcc 833d
00000030: bbe8 563d 03e6 afbc 6ea0 cebc ab5b 68bd
00000040: d3dd c93d 18ba afbd d441 6fbd 84b3 1fbe
00000050: 754d df3d 2f2a 1e3e d13a 6bbe f740 1e3e
00000060: 8430 9dbd 81eb b53c d411 db3b 156e 93bc
00000070: 8756 b2bb e7ef af3d cd46 17bb 12ac c7bd
00000080: bd34 7e3e cf48 b2bd 3e3b 403c 8043 b43d
00000090: 35b6 a33d c498 6d3d a3b8 42bd 6914 853d
000000a0: b695 b2bd 00f2 f8bd 887a afbd 931d bd3d
000000b0: c376 7fbd f6a4 9fbc 36ae 323e 9693 043c
000000c0: c757 3f3c eafe 1bbd 4628 33bd 2493 b43d
000000d0: 93af ffbd 4fe3 393e 4b57 4a3e d3b5 85bc
000000e0: 7a48 db3d 82ff 8ebd c0ef 3c3d c514 193c
000000f0: cfaa 0dbe 805a 0ebe 3657 09be 8170 a63d
00000100: 3c9a ea3c 2af9 0a3e d76a 53bd d5b4 81bd
00000110: 1ba2 c23d eb25 11bd 3b64 13be 88e9 6bbc
00000120: 7704 dbbc c1ce 2c3d b8ab 853c 97dd 41be
00000130: 2f76 f03b 148c 663c 7589 2d3b 206f 04bb
00000140: 7cf0 80bb 6f34 623e 27a4 e93c 4385 ce3d
00000150: a0ce d63d 374a ee3d f912 dbbd 36e1 99bd
00000160: 3831 06be 3145 31be 6a4c 1cbe e0e0 9cbd
00000170: b5ed 933e 32e7 c83d f451 b53d 7264 813e
00000180: f668 61bd ef41 093c dc18 0e3e 75a0 be3c
00000190: d925 723c be8e 7ebe fe29 59bd 4653 bcbd
000001a0: 9e15 f5bd 889c 0c3e a3c8 563d 3f8a dc3d
000001b0: e2c0 7e3d c363 2d3e fd40 b7bd dbc7 61be
000001c0: fccc a8bd e0b0 2b3e ff1a af3b ccf6 b93d
000001d0: f34d b53c f976 87bc e733 903d 8678 f8bd
000001e0: 0e99 b23e df87 893c 29bb 653d 0d25 b2bd
000001f0: 62db c5bd 9920 143d 890e cb3c 312a 03bc
00000200: 2083 be3b edbd a1bd d891 83be 6769 a53d
00000210: cef5 cf3d 2a83 9d3d a4d3 d0bd 54a9 d2bd
00000220: 0ae1 0ebe 452f b1bc 7aba 2bbe d975 08bc
00000230: 8922 80be d5b7 983c 73f3 d13d d8a1 133e
00000240: 09cc f0bc 1b9e 48bd b4c3 96bd 8101 8f3d
00000250: b042 a8bd 5db6 86be 3090 62bd ff98 503d
00000260: 6043 3bbe 3199 09be 9502 2ebe 4a9a a13d
00000270: e3ba 56be 2c8b 7fbd 27c4 48bd d453 f5bb
00000280: 8006 f9bc 9fa4 59be 305c b5bc 84dd eebc
00000290: ee47 95bc d55f 77bc 478e 9dbc a077 32be
000002a0: fc2e 963d eaf3 223e 91a0 76be 0314 edbd
000002b0: e6cb d43c 24fe 4f3e 62a4 83bc a56b 6f3e
000002c0: 9604 3fbd cec5 4a3e fce3 c33d a34e 653e
000002d0: 4774 633d d164 cd3c 48a8 1abe ad07 273d
000002e0: 52e0 23bc bfb0 b03d c4ba c93d 47c6 65bd
000002f0: 1150 14bd 700c 253e 98f6 293e e833 cfbc
00000300: 7d89 a93d a994 b3bd 8876 eebd 8c2f df3a
00000310: 39ea 453c 159e 153d d448 8abe 356d bfbd
00000320: 845c bf3c 4a31 00be 0453 9cbe 1d43 76be
00000330: 0bef 19be b697 753d fea4 d33d e38e 8d3d
00000340: 87eb 26be 1beb 1a3e 957a 0d3b 7dbe e4bb
00000350: 9c3e 093e 5e7c 4d3d e406 a23d 1bf0 723e
00000360: 718d fc3b 8071 ac3c a29d fdbd bfa1 633e
00000370: ebab 6c3d 140b 93bd 0976 a33c d35b bb3d
00000380: a87e 393e 17f5 913b 7400 7bbd 2788 103d
00000390: 68de b1bd bd0b fe3d c291 a3bb c03b d83d
000003a0: fbfb 22be 03df 943d b433 a0bd c8c5 17be
000003b0: 9d04 673c 3ac0 ea3d 89c7 833d b902 9abe
000003c0: bbef 5b3e 8e50 f13d 2601 603e 7149 0ebd
000003d0: 53ed 81bd 8190 01be d1d7 2fbe 29ea 0cbe
000003e0: 727f cebc ad08 a43b c39f 593d cc15 e8bd
000003f0: 9884 2b3d 89e9 be3d 425e a8bd d3f5 233d
-0.23438822 0.011058444 0.041231606 0.14508137 -0.03880842 0.11287955 0.16338672 -0.10989273
-0.14362507 0.007910022 0.05829018 0.064355366 0.052468043 -0.021471983 -0.025222983 -0.056728046
0.09856763 -0.085804164 -0.058412388 -0.15595824 0.10903446 0.1544578 -0.22971655 0.1545447
-0.07675269 0.022207024 0.006685475 -0.017996827 -0.005442444 0.085906796 -0.0023082972 -0.09749617
0.24824806 -0.087052934 0.011732874 0.08801937 0.079937376 0.058007017 -0.047539365 0.064980336
-0.08719961 -0.12155533 -0.08568293 0.092341565 -0.06236912 -0.01948784 0.17449269 0.008091828
0.011678643 -0.038084902 -0.04373958 0.08817127 -0.1248466 0.18153118 0.19759862 -0.016322052
0.10707183 -0.06982328 0.04612708 0.009343331 -0.1383469 -0.1390171 -0.13412175 0.08126927
0.028637998 0.13571611 -0.051615562 -0.06333319 0.095035754 -0.035436552 -0.14393704 -0.01439894
-0.026735527 0.042189363 0.016317233 -0.18932186 0.0073383073 0.014071483 0.0026479636 -0.0020207837
-0.003934918 0.22090314 0.028520657 0.100840114 0.10488629 0.11635249 -0.10696978 -0.07513659
-0.13104713 -0.1731155 -0.15263525 -0.07660079 0.28892294 0.09809722 0.08853522 0.25271946
-0.05503174 0.008377536 0.1387667 0.023269871 0.014779531 -0.2485914 -0.053018562 -0.09195571
-0.11967014 0.13731587 0.052437436 0.10768556 0.062195666 0.16932587 -0.089479424 -0.22048895
-0.08242223 0.16766691 0.0053437944 0.09080276 0.022131896 -0.016536223 0.070411496 -0.12132363
0.34882396 0.016788421 0.056086693 -0.08698473 -0.096609846 0.0361639 0.024787204 -0.008005665
0.005813971 -0.078975536 -0.25697207 0.080767445 0.101543054 0.07691033 -0.10196617 -0.10286203
-0.13953033 -0.021628985 -0.16770354 -0.008328878 -0.25026348 0.018642345 0.102515124 0.14417207
-0.029394167 -0.048978906 -0.07361546 0.06982709 -0.08215845 -0.26311007 -0.05531329 0.05092716
-0.1828742 -0.13437344 -0.16993172 0.078907564 -0.20969729 -0.062388584 -0.04901519 -0.0074867997
-0.030398607 -0.21254204 -0.022138685 -0.029158361 -0.018222775 -0.015098532 -0.019232882 -0.17428446
0.0733318 0.15913358 -0.24084689 -0.115760826 0.025976133 0.2031179 -0.016069595 0.23380907
-0.046635233 0.19802019 0.09564969 0.22393279 0.055530813 0.025072487 -0.15103257 0.040778805
-0.010002213 0.08627462 0.09850076 -0.056097295 -0.03620917 0.16118026 0.16597974 -0.025293306
0.08278177 -0.08768589 -0.11643702 0.001702772 0.012079769 0.036527712 -0.27008688 -0.093470015
0.023359545 -0.12518802 -0.30532086 -0.24049039 -0.15032594 0.059959136 0.10334204 0.06912019
-0.16300784 0.15128748 0.0021587957 -0.006980716 0.1340279 0.050167434 0.079114705 0.23724405
0.007707291 0.021050215 -0.12383582 0.2222967 0.05778114 -0.07179847 0.019953744 0.091483735
0.18114722 0.004454266 -0.06127973 0.035286095 -0.08684999 0.12404583 -0.004991741 0.105582714
-0.15916435 0.072690986 -0.078223616 -0.14821541 0.014100221 0.114624456 0.06434543 -0.30080202
0.21478169 0.11782943 0.21875438 -0.034738008 -0.06344094 -0.1265278 -0.17172171 -0.137612
-0.025207255 0.005005917 0.053130876 -0.113322824 0.041874498 0.09321887 -0.08221103 0.040029358

base.2.conv.1.weight f4 [96]
00000000: 55df 233f 72da 183f 4330 1d3f e856 143f
00000010: 4639 183f 68c8 473f 7c62 103f 40d6 283f
00000020: df34 273f 31f8 263f 5a9d 283f c25e 073f
00000030: f3b9 093f a8f8 263f 887f 903e 9a67 223f
00000040: 9783 973e e46f 0f3f a47a 323f 0937 1f3f
00000050: be47 2e3f b092 1d3f e50b 1e3f 73f2 0c3f
00000060: 9049 253f 3148 023f 6265 2c3f 3339 143f
00000070: e174 2c3f 0690 273f adf6 1f3f 7cba 943e
00000080: a7a9 103f abac 253f 3b79 1b3f d936 193f
00000090: 9041 2d3f 2970 413f 309c 1e3f 44ed 353f
000000a0: 2833 073f 0b1a 213f bc86 1d3f 25e3 2d3f
000000b0: ffda 263f 0150 193f 4496 0b3f a12f 913e
000000c0: 73c8 2f3f 9c7c 943e 61da 243f 9c40 fc3e
000000d0: 2b33 1b3f 1651 293f 51b6 233f bc09 1e3f
000000e0: fadb 173f f574 1b3f 61d0 1f3f ed51 143f
000000f0: 3af4 223f b7a4 313f be79 263f 890c 003f
00000100: b895 1e3f 75ac 1f3f 1258 193f c048 203f
00000110: 1265 2e3f 1136 393f 5a75 163f 5f9a 413f
00000120: 3478 1e3f 3445 213f 3646 2a3f 4e81 2e3f
00000130: a07d 183f c249 1b3f f140 273f c78b 363f
00000140: 8148 273f 9e16 2b3f 810b 373f 3dde 393f
00000150: f0bc 153f 5c0b 073f e337 313f ba4c 163f
00000160: e343 1b3f f109 063f c6a5 173f b872 2b3f
00000170: e303 1a3f 8222 2c3f 9398 3a3f c5b2 123f
0.6401265 0.5970832 0.61401767 0.5794511 0.5946239 0.7804017 0.56400275 0.6595192
0.6531505 0.6522246 0.658651 0.52878964 0.5379936 0.6522317 0.282223 0.63439333
0.29592583 0.56030107 0.69718385 0.6219335 0.6807822 0.6155195 0.617369 0.5505745
0.6456537 0.50891405 0.673422 0.5789978 0.67365843 0.6545414 0.6248577 0.29048526
0.5650887 0.64716595 0.6073186 0.59849316 0.67678165 0.7556177 0.61957073 0.71065164
0.52812433 0.62930363 0.61533713 0.6792472 0.6517791 0.598877 0.5452616 0.2835665
0.68665236 0.2900132 0.6439572 0.49268043 0.6062495 0.6613935 0.6395007 0.61733603
0.5932003 0.6072534 0.62427336 0.5793751 0.6365391 0.6939196 0.65029514 0.5001913
0.619472 0.62372524 0.5990001 0.6261101 0.6812297 0.72348124 0.58772814 0.75626177
0.61902165 0.6299622 0.66513383 0.68166053 0.5956669 0.6065942 0.6533347 0.71307033
0.6534501 0.66831386 0.7150193 0.72604734 0.5849142 0.5275171 0.692259 0.58710825
0.6065046 0.5235892 0.59237325 0.6697192 0.6016218 0.67240155 0.7288906 0.5730403

base.2.conv.1.bias f4 [96]
00000000: e73f 1dbd 0a95 c4bb 57c1 1a3c 5a96 973d
00000010: 6e99 ba3d e514 b63d 9dd9 2e3d a1be cf3c
00000020: 56bf c43d a4be 84bd bf48 973d 1b0a 4f3c
00000030: 47b1 203d 16da 9c3d df0c 0cbb 38be 273d
00000040: 00d7 533c 1365 3a3c 96b7 04bd bf66 a1bd
00000050: 4661 60be 9377 6e3d 5f0a fdbb ac7e 63bd
00000060: a185 093e 218e c8bb 0ac5 0cbd 5050 673d
00000070: 2d16 8bbb fad2 0ebd 5a1a e8bd 8580 923a
00000080: 9385 2e3d 92e1 73bd 8665 ef3c a5eb 883d
00000090: d92f fe3d 9e86 143d 2b29 e83d d6cb 403e
000000a0: 34a9 2c3d d3b9 69bc 3f42 10bd 61b8 573d
000000b0: 2f7d 9a3c 0168 3ebc c816 b43d 75e2 3a3c
000000c0: b6b2 9dbc c2cf 8dbb 81d8 af3d 63b8 e13c
000000d0: 21fe 9cbc 91b3 143d 9224 8cbc a234 b73c
000000e0: ff43 f9bd 9358 88bd 2516 7dbd d6f3 ad3d
000000f0: 4fe3 e13d b8ef a0bc 50a1 783d f2f9 9e3c
00000100: 4e2e 88bd a2b1 c13d 413c 843d 7bd5 b43d
00000110: 3333 ab3d 75e9 0c3e 5183 cb3c 8a63 6e3d
00000120: a51c b23d dc61 073c 35bc cc3b e832 22bd
00000130: 54e2 e43d 32a1 c4bb 7e8b 03bd d612 643d
00000140: 5109 1b3d 075d fcbb 5d61 e9bc 7bc6 50bd
00000150: 4481 a9bd d376 113d 345c 27bd 9032 cdbd
00000160: 4e9a ae3d 4c97 8abc 6ae1 f7bd 8ce8 823d
00000170: 8d40 913d d56a 1f3c c838 ac3d ee7f 953d
-0.03839102 -0.005999212 0.00944551 0.07401724 0.09111296 0.08890704 0.042688 0.025359454
0.09606807 -0.06481674 0.07386922 0.012636687 0.039231565 0.07658784 -0.0021369976 0.04095289
0.012929678 0.011376637 -0.032401644 -0.078809254 -0.21912107 0.058219504 -0.0077221836 -0.055540726
0.13429882 -0.0061204587 -0.0343676 0.056473076 -0.004244587 -0.03486917 -0.11333151 0.0011177218
0.042607855 -0.059541292 0.029223215 0.066855706 0.1241147 0.036261193 0.11335977 0.18827757
0.042153552 -0.014265495 -0.035219427 0.05266607 0.01885852 -0.011621476 0.08793408 0.011406531
-0.019250255 -0.004327745 0.08586217 0.027553743 -0.019164147 0.03630406 -0.017107282 0.022363964
-0.12171172 -0.06657519 -0.061788697 0.08493774 0.11029684 -0.019645557 0.060700715 0.019406293
-0.06649457 0.09457709 0.06456805 0.08829781 0.08359375 0.13760932 0.02484289 0.058200397
0.0869687 0.008263078 0.006248022 -0.03959933 0.11175981 -0.0060006613 -0.032115452 0.055682026
0.03785068 -0.0077015194 -0.02848881 -0.050970536 -0.082766086 0.03551371 -0.040859416 -0.1001941
0.08525525 -0.016917847 -0.12103541 0.06392011 0.0709239 0.009730061 0.08409268 0.07299791
