weights/EXTD_64.pth (torch_old, 696881 bytes, 134 tensors)

base.0.0.weight f4 [64, 3, 3, 3]
0	0xbdcf9ecf	-0.10137712
1	0xbde803b1	-0.11328829
2	0xbd8b5de7	-0.0680502
3	0xbdf5aff1	-0.11996449
4	0xbd42565b	-0.047445636
5	0xbd28477b	-0.041083794
6	0xbdf65130	-0.12027204
7	0xbd404e7c	-0.04694985
8	0xbd511b98	-0.051051706
9	0xbd407bac	-0.046992943
10	0xbd9dfe54	-0.07714525
11	0xbd319e87	-0.043364074
12	0xbdc97952	-0.09837593
13	0xbda28781	-0.079360016
14	0xbd6daa18	-0.058023542
15	0xbda11e21	-0.07867075
16	0xbc9c71a7	-0.019097162
17	0xbd550123	-0.052003037
18	0x3d77ccfd	0.060498226
19	0xbbc0c844	-0.0058832485
20	0x3d082c48	0.033245355
21	0xbcc45a81	-0.023968937
22	0x3cb6f493	0.022333419
23	0x3d2c16ff	0.04201412
24	0x3bc105a9	0.0058905673
25	0x3c66fc95	0.014098306
26	0xb9195f9e	-0.00014626837
27	0x3ba82b99	0.0051321504
28	0xbd9ae918	-0.0756399
29	0x3c2ad800	0.010427475
30	0x3e3f50b1	0.18683125
31	0x3ddea78b	0.108718
32	0x3dcb24e9	0.099191494
33	0x3de590d4	0.112092644
34	0x3d8f5d7d	0.07000253
35	0x3dc69b60	0.09697604
36	0xbdcff01a	-0.101532176
37	0xbe654e09	-0.2239305
38	0xbe40f397	-0.18842922
39	0x3dae21d2	0.085025445
40	0xbdc60dc2	-0.09670593
41	0xbda5012a	-0.08056863
42	0x3d6cd8bf	0.057823893
43	0xbd0e61a2	-0.03476108
44	0xbc4d4cf8	-0.012530558
45	0xbd4ba42c	-0.049717113
46	0xbe0bf616	-0.13668093
47	0xbddfb700	-0.10923576
48	0x3d1ce9b2	0.038308807
49	0xbd3ee3d3	-0.04660399
50	0xbc945de6	-0.01811118
51	0x3d015112	0.031571455
52	0xbc957a96	-0.01824693
53	0x3cec6038	0.028854474
54	0xbc9474c8	-0.018122092
55	0x3c458fb9	0.012058192
56	0xbaf3eea3	-0.0018610548
57	0x3cc0a1aa	0.023514587
58	0xbadb0366	-0.0016709387
59	0x3cf96ec5	0.030448327
60	0x3cbe767e	0.02324986
61	0xbc3692a8	-0.011143364
62	0xbd2d1ece	-0.042265706
63	0x3dbd5824	0.09245327
64	0x3db71d40	0.08941126
65	0x3dd1310a	0.102144316
66	0x3db915cc	0.090373605
67	0x3da6b132	0.08139266
68	0x3d70ccbd	0.058789004
69	0x3da90744	0.08253339
70	0x3d11dc97	0.03561076
71	0x3d5d52b8	0.054033965
72	0x3d282b9f	0.041057225
73	0x3dae9dca	0.085261896
74	0x3daa66c6	0.08320384
75	0x3db16f6f	0.086638324
76	0x3d886291	0.06659425
77	0x3d1e00a0	0.038574815
78	0x3d993e76	0.074826166
79	0x3d12a65a	0.035803176
80	0x3b91f397	0.004454087
81	0xbb2edcb2	-0.0026681838
82	0x3d467c1e	0.04845821
83	0xbc4b8eb8	-0.0124241635
84	0x3cebacda	0.028768945
85	0x3d89534a	0.06705339
86	0x3d38c20e	0.04510694
87	0x3d91565f	0.07096552
88	0x3dd93505	0.10605816
89	0x3d8025f6	0.062572405
90	0x3e106f8f	0.14105056
91	0x3e062ec5	0.13103779
92	0x3e212b38	0.15739143
93	0x3e01bcfc	0.12669748
94	0x3e09557f	0.1341152
95	0x3db8cd22	0.09023501
96	0x3e17cfb5	0.14825328
97	0x3df0c18f	0.11755668
98	0x3e0bd090	0.13653779
99	0xbe14ceab	-0.14531963
100	0xbe3ea91d	-0.18619199
101	0xbe099307	-0.13434993
102	0xbe280825	-0.16409357
103	0xbe3b04a0	-0.18263483
104	0xbe1d0431	-0.1533363
105	0xbe3f8533	-0.18703155
106	0xbe67af83	-0.22625546
107	0xbe5d19df	-0.215919
108	0x3dbc1feb	0.09185775
109	0x3cce0a02	0.025151256
110	0x3c03ef3e	0.008052645
111	0xbdd670ef	-0.10470759
112	0xbde34297	-0.110966854
113	0x3c418377	0.011811129
114	0xbe64ceaa	-0.22344461
115	0xbe306aee	-0.1722829
116	0x3d04e33a	0.032443263
117	0x3d8c8d7a	0.06862922
118	0xbb925724	-0.0044659544
119	0xbd350511	-0.044194285
120	0xbd6c3bf1	-0.057674352
121	0xbdfb6bb2	-0.122764006
122	0xbd8e3bae	-0.06944977
123	0xbe3c7181	-0.18402673
124	0xbe3a8590	-0.18215013
125	0x3bc48c6b	0.0059981844
126	0x3d823419	0.06357593
127	0x3cac8f0e	0.021064308
128	0xbdb8ea47	-0.0902906
129	0x3d03ca74	0.032175496
130	0xbc1a2730	-0.009408757
131	0xbc914907	-0.017735017
132	0xbda3078c	-0.07960424
133	0xbd9bc6c3	-0.0760627
134	0x3c818a22	0.015812937
135	0x3d9ea4fa	0.077463105
136	0x3d75be63	0.05999602
137	0x3de2df81	0.11077786
138	0x3e212cea	0.1573979
139	0x3e3f2ced	0.18669482
140	0x3e584a39	0.21122064
141	0x3d7ab748	0.061209947
142	0x3d6ad2dd	0.05733
143	0x3d8b7d94	0.068110615
144	0xbd586388	-0.052829295
145	0xbcce84a6	-0.025209736
146	0x3d0ee032	0.034881778
147	0x3d3ddc56	0.046352707
148	0x3db453fc	0.08805081
149	0x3dae8663	0.08521726
150	0xbd68fa6d	-0.05687945
151	0xbdb7dd25	-0.08977727
152	0xbd2b8a96	-0.041880213
153	0xbd9a52e1	-0.07535339
154	0xbd82270c	-0.06355104
155	0xbd936ddd	-0.07198689
156	0xbc89bb09	-0.016812818
157	0xbc3e5fb5	-0.011619498
158	0x3bbb7ff6	0.0057220412
159	0xbd669c60	-0.056301475
160	0xbde0b3c5	-0.10971788
161	0xbdd80fc9	-0.10549886
162	0x3d91fb53	0.071280144
163	0x3dca3734	0.098738104
164	0xbbbdb2e8	-0.0057891496
165	0x3e2577b2	0.16158941
166	0x3dffc277	0.12488263
167	0x3d9f7ea6	0.07787828
168	0x3e17189f	0.14755486
169	0x3d4291e8	0.04750243
170	0x3d5ef2f8	0.05443093
171	0x3d93f28e	0.07223998
172	0x3d9e27f3	0.077224635
173	0xbca56f09	-0.020194547
174	0x3de17b8f	0.11009895
175	0x3d9dc16b	0.07702907
176	0xbcaaf3d1	-0.020868214
177	0x3d5e81b0	0.0543229
178	0xbd6d0b21	-0.05787194
179	0xbcda46a2	-0.026645008
180	0x3d54e5f5	0.051977117
181	0x3de62a82	0.112385765
182	0x3d027961	0.031854037
183	0x3d86a0e7	0.065736584
184	0x3d263364	0.040576354
185	0x3ca6ea86	0.020375501
186	0x3ccf6633	0.025317287
187	0xbdaf6d19	-0.085657306
188	0xbd0027c0	-0.03128791
189	0xbd02ac4d	-0.0319026
190	0xbcd84355	-0.026399294
191	0xbd58ed58	-0.052960724
192	0x3b3a3da2	0.0028418084
193	0xbccdc40a	-0.025117893
194	0xbd6efa44	-0.05834414
195	0x3ce2359a	0.02761345
196	0x3b5b3e77	0.003345398
197	0xbd5f38ac	-0.054497406
198	0x3cbdba4f	0.023160128
199	0xbd693f4c	-0.05694513
200	0xbd10b825	-0.035331864
201	0x3d5282fc	0.051394448
202	0xbc6c9751	-0.0144403735
203	0xbd40dc24	-0.047084942
204	0x3d763f3a	0.06011889
205	0xbca45dc5	-0.020064244
206	0xbc34c372	-0.011032926
207	0x3d221167	0.039567377
208	0xbccca7f5	-0.024982432
209	0xbc8cf47e	-0.017206427
210	0x3d6602c2	0.056154974
211	0xbd03a9ff	-0.032144543
212	0x3b90320c	0.0044004973
213	0x3d882a8d	0.06648741
214	0x3c8acfb7	0.01694475
215	0x3c8ebff3	0.017425513
216	0xbcb40131	-0.021973224
217	0x3cbb5c38	0.022871122
218	0xbd29d116	-0.041459166
219	0x3d3a5abd	0.04549669
220	0x3e4b3093	0.19842748
221	0x3dcfd3bd	0.10147808
222	0xbd9a1a89	-0.075245924
223	0x3da54780	0.08070278
224	0x3d4c5819	0.049888704
225	0x3c8be58e	0.017077234
226	0x3cf2e3d6	0.029649656
227	0xbd2674d0	-0.040638745
228	0x3da34171	0.07971466
229	0x3e76433d	0.24049087
230	0x3d9810e2	0.07425095
231	0xbccb749d	-0.024835879
232	0x3dc8a8d1	0.09797824
233	0x3d71d9d7	0.05904564
234	0x3cf977d1	0.03045264
235	0x3bccf998	0.00625534
236	0xbcc7e021	-0.024398865
237	0x3d4fba29	0.050714646
238	0x3e0e0d7d	0.13872333
239	0x3d5c19cb	0.053735536
240	0xbc01228b	-0.007881771
241	0x3dcb2804	0.09919742
242	0x3d100e28	0.03516975
243	0xbd263fe6	-0.040588282
244	0xbe20b6c7	-0.15694724
245	0x3e306c7a	0.1722888
246	0x3da2127b	0.07913681
247	0xbe8d2ade	-0.27571768
248	0x3e88453c	0.26615322
249	0x3af4e99b	0.0018685343
250	0xbe269a0e	-0.16269705
251	0x3deef856	0.1166846
252	0xbcd739ef	-0.026272742
253	0xbe2446c6	-0.16042623
254	0x3e46f932	0.19430998
255	0x3d26614c	0.040620133

base.0.1.weight f4 [64]
0	0x3eae48bd	0.3403987
1	0x3f073f9a	0.52831423
2	0x3ec42534	0.38309634
3	0x3edad337	0.4273927
4	0x3eb47e37	0.35252544
5	0x3ef5ea26	0.48030204
6	0x3ec5ff75	0.3867146
7	0x3e98aea8	0.29820752
8	0x3edad1df	0.42738244
9	0x3ef349b8	0.4751718
10	0x3eee398b	0.46528277
11	0x3e94f147	0.2909033
12	0x3edf770a	0.43645507
13	0x3ecc6ca7	0.39926645
14	0x3f0380ab	0.51368207
15	0x3ee9475c	0.45562255
16	0x3eb3c98b	0.35114703
17	0x3f08b7f0	0.53405666
18	0x3ecabc4d	0.39596787
19	0x3ec4e70d	0.38457528
20	0x3e8a8268	0.27052617
21	0x3eff06f5	0.49809995
22	0x3ef647da	0.48101693
23	0x3ea63305	0.324608
24	0x3ec5cd85	0.3863336
25	0x3ed9be75	0.4252812
26	0x3ec2d114	0.3805014
27	0x3f5fccd1	0.874219
28	0x3e9e7821	0.30951026
29	0x3eecb695	0.4623305
30	0x3ebfa815	0.37432924
31	0x3ea5c3a6	0.3237583
32	0x3ee11c1e	0.43966764
33	0x3edb1fbc	0.4279765
34	0x3e976ddd	0.29576007
35	0x3f19447d	0.5987013
36	0x3ee89117	0.45423195
37	0x3ecee5fb	0.40409836
38	0x3ea0d2fb	0.31410965
39	0x3eccdf26	0.40014
40	0x3ed9635a	0.42458612
41	0x3eca9d47	0.39573118
42	0x3e98b26c	0.29823625
43	0x3eabe520	0.33573246
44	0x3ed7f947	0.4218237
45	0x3f031692	0.51206315
46	0x3e99dbc5	0.30050483
47	0x3ec944b8	0.3931024
48	0x3ebd9d69	0.37034157
49	0x3e8d96de	0.27654165
50	0x3ee316a3	0.44353208
51	0x3f22f974	0.63661885
52	0x3e9a0de4	0.30088723
53	0x3f0ad275	0.5422738
54	0x3f056a15	0.52114993
55	0x3e86f9f4	0.26362574
56	0x3ee0e19c	0.43922126
57	0x3ecabdfa	0.39598066
58	0x3eaf2944	0.3421117
59	0x3eaa755e	0.3329267
60	0x3f0ea8c5	0.5572627
61	0x3ebe0a2e	0.3711714
62	0x3e94658e	0.2898373
63	0x3ed3ac94	0.41342604

base.0.1.bias f4 [64]
0	0x3dfcfc3d	0.12352798
1	0x3d7dae31	0.0619337
2	0xbd742cbf	-0.059612986
3	0x3e2cea48	0.16886246
4	0xbec6caec	-0.38826692
5	0x3c76c945	0.015062635
6	0x3e4fdd3e	0.20299241
7	0x3c9fc10c	0.019501232
8	0x3e091f9a	0.13390961
9	0x3e71c857	0.2361158
10	0xbdbdaf26	-0.092619225
11	0x3ca938a5	0.020656893
12	0xbdf4b361	-0.11948276
13	0xbd38652f	-0.04501837
14	0xbd6d09f7	-0.05787083
15	0x3d139b27	0.036036637
16	0x3ddc4fc3	0.10757401
17	0x3b00e652	0.0019668532
18	0x3b59337a	0.0033142255
19	0xbc97bff4	-0.018524148
20	0xbcf278b2	-0.029598568
21	0x3e3187c6	0.1733695
22	0x3c6dd305	0.014515643
23	0xbc13cfeb	-0.0090217395
24	0x3e468a4a	0.1938869
25	0x3d0e199f	0.034692403
26	0xbc94c6b5	-0.018161157
27	0x3e19b6b1	0.15011097
28	0x3cee2560	0.029070556
29	0x3d225ee7	0.039641287
30	0x3e20be61	0.15697624
31	0xbd5c4038	-0.05377218
32	0xbe88f5c2	-0.26749998
33	0xbea505fc	-0.32231128
34	0xbc70724a	-0.014675686
35	0xbd51223d	-0.051058043
36	0x3d900962	0.0703304
37	0x3d7b6a9e	0.061380975
38	0x3cdf93bb	0.027292123
39	0x3e1a2f03	0.15056996
40	0x3d915c6f	0.070977084
41	0xbebe5a30	-0.37178183
42	0x3d5855b1	0.052816097
43	0x3d3c02f7	0.045901265
44	0x3decf478	0.11570066
45	0x3dfc41b3	0.12317219
46	0xbcbee3db	-0.02330201
47	0x3d31b320	0.043383718
48	0xbe273335	-0.16328128
49	0xbe7fbefd	-0.249752
50	0x3bbd292b	0.00577273
51	0x3e0a9166	0.13532028
52	0x3d17329c	0.0369135
53	0xbd88ae2d	-0.066738464
54	0x3d5b0e11	0.05348021
55	0x3d5527c8	0.05203989
56	0xbd72b6e6	-0.059256457
57	0x3cb28a15	0.021794358
58	0xbd81ac03	-0.06331637
59	0xbdb6418b	-0.0889922
60	0xbef35524	-0.47525895
61	0xbc8d4692	-0.017245565
62	0x3d5422ca	0.05179099
63	0xbd963a04	-0.07335284

base.0.1.running_mean f4 [64]
0	0x3e0f5d5b	0.14000456
1	0x3f0c9871	0.5492011
2	0xbf92ada2	-1.1459239
3	0xbfbdf214	-1.4839501
4	0x3f36c999	0.71401364
5	0x3f33dc0e	0.7025765
6	0x3fcaf102	1.58548
7	0xbf42c77d	-0.76085645
8	0xbf35b65f	-0.709814
9	0xbfe8af74	-1.8178544
10	0x3fbf24e6	1.4933136
11	0xbff72b03	-1.9310001
12	0x402a43a8	2.6603794
13	0x402d5458	2.708273
14	0xbfa934d8	-1.3219252
15	0x3fdb8d23	1.7152447
16	0xbf6a888e	-0.91614616
17	0x40198fef	2.39941
18	0xbfe003a9	-1.7501117
19	0x3ee7c308	0.45265985
20	0x400cf131	2.2022212
21	0xbffe5ccd	-1.987207
22	0x3dacf3c5	0.08444933
23	0xbf6dbd6a	-0.9286715
24	0xbea32bd6	-0.31869382
25	0x3f8a46fb	1.0802912
26	0x3f85e0bc	1.0459208
27	0xbf8a560c	-1.080751
28	0xbedd5e1b	-0.4323586
29	0x3fba94f6	1.4576709
30	0xc0056b9a	-2.0846925
31	0xbe137c3b	-0.14402859
32	0x400f1177	2.235441
33	0x3f0c9f49	0.5493055
34	0x401b6181	2.4278262
35	0xbd2eb0ef	-0.042649206
36	0x400d8f5a	2.2118745
37	0xc0018d63	-2.0242546
38	0xbfc776ff	-1.558319
39	0xbeaed227	-0.3414471
40	0xc01e1800	-2.4702148
41	0xbdff6c41	-0.1247182
42	0xbfac3608	-1.3453989
43	0x3d9f8874	0.07789698
44	0xbfa6809c	-1.3007998
45	0x3cddebec	0.027090035
46	0x4027ae19	2.620001
47	0x4054ca07	3.3248308
48	0xbf724b2c	-0.94645953
49	0x3eba66fe	0.36406702
50	0x3f17d8a0	0.5931492
51	0xbf357e4e	-0.7089585
52	0xbecbc871	-0.39801362
53	0xbf875618	-1.0573149
54	0xbdb4e16b	-0.088320576
55	0x3ffe62e1	1.9873925
56	0x403caaf4	2.9479342
57	0xbede0a4d	-0.43367234
58	0x3e8bbc6a	0.27292186
59	0xbfe8a83d	-1.8176342
60	0x3ffba5fc	1.966003
61	0xc025248a	-2.5803552
62	0x3fe92aec	1.8216224
63	0x3fba50d7	1.455592

base.0.1.running_var f4 [64]
0	0x44cf3db9	1657.9288
1	0x4527aca7	2682.7908
2	0x45a1b936	5175.1514
3	0x43afa993	351.3248
4	0x449a5d64	1234.9185
5	0x447bd177	1007.2729
6	0x44d702da	1720.0891
7	0x457350bc	3893.046
8	0x44c14b33	1546.35
9	0x434855f2	200.33572
10	0x449cf4ce	1255.6501
11	0x44d65496	1714.6433
12	0x43c7bdc2	399.48248
13	0x44b96341	1483.1017
14	0x452cda8d	2765.6594
15	0x4440a06a	770.5065
16	0x44563c4f	856.9423
17	0x443f6acd	765.66876
18	0x44efa647	1917.1962
19	0x452d004c	2768.0186
20	0x444cf2fd	819.7967
21	0x43b4fae0	361.95996
22	0x44067910	537.8916
23	0x451c37a4	2499.4775
24	0x43e37a2a	454.9544
25	0x43f176dc	482.9286
26	0x4425db3b	663.4255
27	0x459726a5	4836.8306
28	0x4386e1bd	269.76358
29	0x4368851e	232.51999
30	0x44bfaa3c	1533.3198
31	0x44afc859	1406.2609
32	0x459b256c	4964.6777
33	0x44bdcb21	1518.3478
34	0x45161fde	2401.9917
35	0x448d45ef	1130.1854
36	0x43f1c89d	483.5673
37	0x445f9297	894.29047
38	0x442dfc80	695.9453
39	0x43ae6584	348.7931
40	0x43ba7f65	372.99527
41	0x449acbc6	1238.3679
42	0x451e2f28	2530.9473
43	0x4492ada5	1173.4264
44	0x4453935d	846.30255
45	0x44362d74	728.7102
46	0x4483b6d6	1053.7136
47	0x43fc4dc6	504.6076
48	0x44983904	1217.7817
49	0x432368fa	163.41006
50	0x453842dd	2948.179
51	0x44cdac6f	1645.3885
52	0x44ec717f	1891.5468
53	0x44b7c148	1470.04
54	0x43d0c754	417.55725
55	0x45166a3c	2406.6396
56	0x445b8503	878.0783
57	0x44913672	1161.7014
58	0x4498d633	1222.6937
59	0x45098236	2200.1382
60	0x45c91890	6435.0703
61	0x442bb1c2	686.77747
62	0x44f3c5fb	1950.1869
63	0x44122882	584.63293

base.1.conv.0.weight f4 [64, 1, 3, 3]
0	0xbd361b37	-0.044459548
1	0xbdb20918	-0.08693141
2	0xbd8e918a	-0.06961353
3	0xbdf2bb06	-0.11852078
4	0xbe268dce	-0.16265032
5	0xbe1fc3ba	-0.15602008
6	0xbd781c24	-0.060573712
7	0xbd9e4af5	-0.07729141
8	0xbda4e28c	-0.08051023
9	0x3e273e8b	0.16332452
10	0x3e538049	0.20654406
11	0x3e3e98ee	0.18613026
12	0x3c2b55dc	0.010457482
13	0xbd5b4539	-0.053532813
14	0x3ce0f995	0.02746276
15	0x3cd57451	0.02605644
16	0x3c2cc555	0.0105450945
17	0xbc53905b	-0.012912835
18	0xbdd32521	-0.10309816
19	0xbdf584a6	-0.11988191
20	0xbd5afbd8	-0.053462833
21	0xbd813d4a	-0.06310518
22	0xbdda702e	-0.10665928
23	0xbca39b61	-0.019971551
24	0xbbab1899	-0.005221438
25	0xbcd1fb5b	-0.025632551
26	0x3e0b340d	0.13594075
27	0x3ea0ef59	0.31432608
28	0x3e9027be	0.2815532
29	0x3e90cdf9	0.28282145
30	0x3d286b02	0.041117676
31	0xbdf0b16e	-0.11752592
32	0x3d738fe0	0.05946338
33	0xbe6faec2	-0.23406509
34	0xbec17d6c	-0.37791002
35	0xbe7089ae	-0.2349002
36	0x3e9673f8	0.29385352
37	0x3f364dac	0.7121227
38	0x3e81f53e	0.25382417
39	0x3e1ab156	0.15106711
40	0xbea2419d	-0.31690684
41	0xbeb2cf34	-0.34923708
42	0xbc96513a	-0.018349279
43	0xbedc7d60	-0.43064404
44	0xbe86e916	-0.26349705
45	0xbe54b431	-0.20771863
46	0xbd8a2bb1	-0.06746615
47	0x3de1cb23	0.110250734
48	0xbe1a5d35	-0.15074618
49	0xbd40398a	-0.046929874
50	0x3e5e580b	0.21713273
51	0xbda70fc1	-0.08157302
52	0x3d0e6097	0.034760084
53	0x3e359545	0.17732723
54	0x3e145b2c	0.14487904
55	0x3ecc635d	0.39919558
56	0x3ed032e6	0.40663832
57	0xbd1dbe6a	-0.03851167
58	0x3be18f08	0.0068835057
59	0xbe184c61	-0.14872886
60	0xbdb52bfd	-0.08846281
61	0xbe861c50	-0.26193476
62	0xbe9d2c5f	-0.30697915
63	0x3d5b59c9	0.053552423
64	0x3c7172d9	0.0147368545
65	0x3d08aed9	0.033369873
66	0xbb9de460	-0.004818484
67	0x3d2234df	0.039601203
68	0x3cfb6574	0.030688025
69	0x3c0cfdb1	0.008605407
70	0x3bf4fad1	0.0074761887
71	0x3c8c54a8	0.017130211
72	0xbc5cb88c	-0.013471734
73	0x3e571bf6	0.2100676
74	0x3e49925d	0.1968474
75	0xbe815889	-0.2526286
76	0x3e403858	0.18771493
77	0x3ed579ac	0.4169439
78	0xbea4a3e1	-0.3215628
79	0xbed1ae2f	-0.40953204
80	0x3ac15d20	0.0014752485
81	0xbc804d60	-0.015661895
82	0x3cab6750	0.020923287
83	0x3c0cfe48	0.008605547
84	0x3ea18f35	0.3155457
85	0xbf321b6f	-0.6957311
86	0x3ddf6c2e	0.109093055
87	0x3c46cb31	0.012133406
88	0xbc951f76	-0.018203478
89	0x3a8e9b4d	0.0010880023
90	0xbe04b458	-0.1295942
91	0xbdbcf614	-0.09226623
92	0xbd2ca218	-0.042146772
93	0xbdbc61f1	-0.09198368
94	0xbe11a88e	-0.14224455
95	0xbd7abbd8	-0.061214298
96	0x3c924e72	0.017859671
97	0x3bb52207	0.005527738
98	0x3c6237a9	0.013807216
99	0xbd82e49b	-0.06391259
100	0x3d26ddbf	0.040738817
101	0x3d6e5127	0.05818286
102	0xbdb56aa5	-0.088582315
103	0x3d1f4183	0.038880836
104	0x3d73e227	0.059541848
105	0xbd1272ab	-0.035753887
106	0x3c0d4769	0.008622983
107	0x3d1e78c0	0.038689375
108	0x3dcd9a04	0.10039142
109	0x3e0ad368	0.13557208
110	0x3d314457	0.043278065
111	0x3df12f77	0.11776631
112	0x3e5603c7	0.20899878
113	0x3d9108e5	0.070817746
114	0x3e0e4fcd	0.13897629
115	0x3e780bc7	0.24223243
116	0x3deb72d8	0.11496514
117	0xbc9c0c5f	-0.019048868
118	0xbba64a21	-0.005074755
119	0xbc276db2	-0.0102190245
120	0xbe0473a4	-0.12934738
121	0xbe08053e	-0.1328325
122	0xbe002405	-0.1251374
123	0xbd543850	-0.051811516
124	0xbdc02f90	-0.09384072
125	0xbdfb2072	-0.12262048
126	0x3e570672	0.20998552
127	0xbc95d5da	-0.018290449
128	0xbe80a998	-0.2512939
129	0x3ec3f7ea	0.3827508
130	0x3d3e1847	0.04640987
131	0xbe917c4a	-0.28415138
132	0x3dec2e00	0.11532211
133	0x3cb87de6	0.02252097
134	0xbe754f31	-0.2395599
135	0x3cbfe632	0.023425195
136	0xbea01cb8	-0.3127191
137	0x3dd14203	0.10217669
138	0xbd1ba711	-0.038001124
139	0x3f0dd9ab	0.5541026
140	0xbda9e13a	-0.08294912
141	0xbd237c5a	-0.039913513
142	0xbd0ee119	-0.03488264
143	0xbd21360f	-0.039358195
144	0x3d03139e	0.03200113
145	0x3cc31e56	0.023818176
146	0x3e0c5841	0.13705541
147	0xbd32176e	-0.043479376
148	0xbd98d15c	-0.07461807
149	0x3c8bfc79	0.017088162
150	0x3dcf7e7f	0.10131549
151	0x3e6568f2	0.22403315
152	0xbd12bdbe	-0.035825484
153	0x3b67d54d	0.003537494
154	0xbd81f09d	-0.063447215
155	0x3b359801	0.002770901
156	0x3e184c0b	0.14872758
157	0x3ec3e67b	0.3826178
158	0x3e2bd56a	0.1678063
159	0xbda4157e	-0.08011912
160	0xbdede4eb	-0.11615928
161	0xbdd2c8d0	-0.10292208
162	0x3d6bf0e5	0.05760278
163	0x3d9a283c	0.07527205
164	0x3daecdcf	0.085353486
165	0x3d6a893b	0.05725978
166	0x3dc203da	0.09473391
167	0x3dbb385f	0.09141611
168	0x3d80ba3d	0.06285522
169	0x3d1641a1	0.036683682
170	0x3da6b39e	0.08139728
171	0x3e2f5ef9	0.17126073
172	0x3e250b59	0.1611761
173	0x3dd6fd50	0.10497534
174	0x3cabf74e	0.020991948
175	0x3db7a734	0.08967438
176	0x3d9cd738	0.07658237
177	0xbd2c835a	-0.042117454
178	0x3d1097ef	0.035301145
179	0xbc973a13	-0.01846031
180	0xbce0ec6c	-0.027456485
181	0xbdbe0698	-0.092786014
182	0xbc8e2d74	-0.017355658
183	0x3d5b52dc	0.053545818
184	0xbcd9648b	-0.0265372
185	0x3c26eefb	0.010188813
186	0x3d8f725f	0.070042364
187	0x3cb28bd5	0.021795193
188	0xbcffdc8d	-0.031233096
189	0x3d7c4629	0.061590347
190	0x3d8c3bbf	0.06847333
191	0x3c79f98a	0.015257249
192	0x3c004e29	0.007831135
193	0xbe01f686	-0.12691697
194	0xbde58595	-0.112071194
195	0xbd500d78	-0.050794095
196	0xbe75f1f8	-0.24018085
197	0xbe328eeb	-0.17437331
198	0xbe2827db	-0.16421454
199	0x3e20b408	0.15693676
200	0x3d2274bc	0.039662108
201	0xbec0375e	-0.37542242
202	0x3e8e6cfd	0.27817526
203	0x3d6a4970	0.05719894
204	0xbd8421fe	-0.06451796
205	0xbce81700	-0.02833128
206	0x3db1aea4	0.08675888
207	0xbcafb275	-0.0214474
208	0xbd3799d1	-0.044824425
209	0x3c15ca91	0.009142534
210	0x3d0cb745	0.034354467
211	0xbcd50397	-0.026002688
212	0x3cff9df9	0.031203257
213	0x3d4fd0a4	0.050736085
214	0x3cb530b2	0.022117946
215	0x3d83239c	0.06403276
216	0xbe1c2e8f	-0.15252136
217	0xbe1ec5dd	-0.15505166
218	0xbdd28378	-0.10278982
219	0x3c937d6d	0.018004144
220	0xbd1595c9	-0.0365198
221	0x3c76d3eb	0.015065174
222	0xbdbc87be	-0.09205578
223	0xbe4ecd6b	-0.20195548
224	0xbe43b3e4	-0.19111592
225	0xbe2b593c	-0.16733259
226	0xbe901682	-0.28142172
227	0xbddafaca	-0.106923655
228	0xbc981a9d	-0.018567378
229	0xbe3d7fc3	-0.18505768
230	0xbd2370e9	-0.0399026
231	0x3d829693	0.06376376
232	0xbe0b94ef	-0.13631032
233	0x3d2b8288	0.04187253
234	0x3ceec111	0.029144796
235	0xbd847cd5	-0.06469122
236	0xbd09b55e	-0.03362023
237	0xbda7cce2	-0.08193375
238	0xbe01f307	-0.12690364
239	0xbd5f1c1f	-0.054470178
240	0xbe0891eb	-0.13336913
241	0xbe133761	-0.14376594
242	0xbe09ac5f	-0.1344466
243	0xbcb656b6	-0.022258144
244	0xbdcf1045	-0.10110525
245	0xbcbaffb9	-0.022827016
246	0xbe0c30da	-0.1369051
247	0x3f519f01	0.81883246
248	0xbd900915	-0.07032982
249	0xbce609d2	-0.028080855
250	0xbe604abb	-0.21903507
251	0x3d5bf633	0.05370159
252	0xbd9dac2e	-0.07698856
253	0xbe660bae	-0.22465393
254	0xbcf60129	-0.03002985
255	0xbd842097	-0.064515285

base.1.conv.0.bias f4 [64]
0	0xbebf33ff	-0.37344357
1	0x3db6f5be	0.0893359
2	0x3cbbcefa	0.022925843
3	0x3c0ba0d7	0.008522234
4	0x3e04f9f7	0.12985979
5	0x3d9a537e	0.07535456
6	0x3e3a6c3d	0.18205352
7	0x3c27a76e	0.010232789
8	0x3e33ec5e	0.17570636
9	0x3d604f73	0.05476327
10	0xbda50815	-0.08058182
11	0x3c9fe0f9	0.019516455
12	0xbe0f2674	-0.13979512
13	0xbb9be8ad	-0.0047579617
14	0xbdc81bf3	-0.09770956
15	0x3e5e5dad	0.21715422
16	0x3ee0fd82	0.4394341
17	0xbd40e3a2	-0.047092088
18	0xbd478eca	-0.04872016
19	0x3dc74c5c	0.09731361
20	0x3e576f21	0.21038486
21	0xbd65b3f8	-0.056079835
22	0xbb9b05bb	-0.0047309077
23	0x3d8d3644	0.06895116
24	0x3e01ecf8	0.12688053
25	0x3e3943ba	0.18092242
26	0x3d8b3db2	0.06798877
27	0xbd029b40	-0.03188634
28	0x3e8dab8d	0.27669945
29	0x3db34e77	0.087552
30	0xbe8c42ef	-0.27394816
31	0x3c1b6810	0.00948526
32	0xbe9bd9fd	-0.3043975
33	0x3dca65f0	0.09882724
34	0xbda0baf1	-0.07848156
35	0x3e313859	0.17306651
36	0x3dbe6b8b	0.09297856
37	0x3e0a74c9	0.13521113
38	0x3e3cd040	0.18438816
39	0xbe908a15	-0.28230348
40	0xbc9c3f65	-0.019073198
41	0x3e5ced94	0.21575004
42	0xbd16ebca	-0.03684596
43	0x3c9d09af	0.019169657
44	0x3dc3d70d	0.09562502
45	0x3e672c1c	0.2257542
46	0xbdd42475	-0.10358516
47	0xbe1ee9e7	-0.15518914
48	0x3e310d00	0.17290115
49	0x3e8b451d	0.27201167
50	0xbd026930	-0.031838596
51	0x3e43802a	0.1909186
52	0x3ac4901b	0.001499656
53	0xbe30fc33	-0.17283706
54	0xbe92e0a7	-0.2868702
55	0xbcc0d535	-0.023539165
56	0xbe0edc79	-0.13951291
57	0xbe272b06	-0.16325006
58	0x3d087803	0.033317577
59	0x3e246a8d	0.16056271
60	0x3db757cc	0.08952293
61	0xbcd0c90d	-0.025486493
62	0xbd8e9e25	-0.069637574
63	0xbd222c0f	-0.0395928

base.1.conv.1.weight f4 [64]
0	0x3efe1a86	0.4962961
1	0x3ed53e6f	0.41649196
2	0x3eb64c91	0.3560529
3	0x3f08e5b9	0.5347553
4	0x3ec9911c	0.39368522
5	0x3eeebf27	0.46630213
6	0x3ee8828f	0.45412108
7	0x3e8ec763	0.27886495
8	0x3eff3cd3	0.49851093
9	0x3f22e898	0.6363616
10	0x3eb090a0	0.3448534
11	0x3e9acf10	0.302361
12	0x3f01f460	0.5076351
13	0x3ec429e3	0.38313207
14	0x3f13dbf8	0.5775752
15	0x3f08a933	0.5338318
16	0x3f16ce05	0.5890811
17	0x3f0f9ded	0.5610035
18	0x3eb35630	0.35026693
19	0x3ec46b0a	0.38362914
20	0x3ec336c9	0.38127735
21	0x3edbb34f	0.4291024
22	0x3f036c7b	0.51337403
23	0x3e93aff7	0.28845188
24	0x3ef339dc	0.4750508
25	0x3f004be6	0.5011581
26	0x3ecf038e	0.404324
27	0x3f4563ce	0.77105415
28	0x3ee15a85	0.44014373
29	0x3efcf7fe	0.49407953
30	0x3f088e80	0.5334244
31	0x3e972b07	0.29525015
32	0x3f1845ea	0.5948168
33	0x3f183dd4	0.5946934
34	0x3e965c3e	0.2936725
35	0x3f20cdbf	0.62813944
36	0x3f182cc4	0.59443307
37	0x3ecaf691	0.3964124
38	0x3ece97f6	0.40350312
39	0x3f03d4c3	0.51496524
40	0x3f0bfd99	0.54683834
41	0x3f12178f	0.570672
42	0x3e8d9aa8	0.27657056
43	0x3e9fbcd2	0.31198746
44	0x3eee7bda	0.46578866
45	0x3effbb3b	0.49947533
46	0x3eabf9d9	0.33589056
47	0x3ee4cc24	0.44686997
48	0x3ef476c7	0.4774687
49	0x3ecc50fe	0.39905542
50	0x3ee8b102	0.45447546
51	0x3f1e656a	0.61873496
52	0x3e9e25b5	0.30888143
53	0x3f287db2	0.65816796
54	0x3f10f613	0.5662548
55	0x3e8fdcdd	0.28098193
56	0x3ef89dc4	0.48557866
57	0x3eb88016	0.36035222
58	0x3eb7508e	0.35803646
59	0x3ed16726	0.4089901
60	0x3ef89b20	0.4855585
61	0x3ece45fb	0.40287766
62	0x3e91a8b7	0.28449032
63	0x3ede9c77	0.43478748

base.1.conv.1.bias f4 [64]
0	0xbdb4070a	-0.08790405
1	0x3d1d60e0	0.038422465
2	0x3c29543e	0.010335026
3	0x3bb77ce4	0.005599605
4	0x3d76010e	0.0600596
5	0x3cc1bc9c	0.023649506
6	0x3d3124a9	0.043247852
7	0x3af42b7c	0.0018628682
8	0x3d197435	0.03746434
9	0x3c4b6c45	0.01241595
10	0xbd749b90	-0.05971867
11	0x3c1de34a	0.0096367095
12	0xbd590c8f	-0.052990492
13	0x3b0bb194	0.0021315562
14	0xbcde9318	-0.02716975
15	0x3ce7ff1b	0.028319886
16	0x3de2b163	0.1106899
17	0xbd28f18f	-0.041245993
18	0xbc8e631e	-0.017381247
19	0x3cc7847d	0.024355168
20	0x3da929f2	0.082599536
21	0xbc998de0	-0.01874441
22	0x3ba8bdb5	0.005149568
23	0x3d20c3e0	0.0392493
24	0x3d506c00	0.050884247
25	0x3d9fbc6f	0.07799613
26	0x3d0542f5	0.03253456
27	0xbb335b72	-0.0027367738
28	0x3d9b409e	0.07580684
29	0x3cc5944f	0.02411857
30	0xbdb06160	-0.08612323
31	0x3c007a8b	0.0078417165
32	0xbe11218b	-0.14172952
33	0x3cf53680	0.029933214
34	0xbd0f114a	-0.034928598
35	0x3d3c10ba	0.04591439
36	0x3cc46cac	0.0239776
37	0x3d00031d	0.03125297
38	0x3da74951	0.08168281
39	0xbdd77a47	-0.105213694
40	0xbb2d57f9	-0.002645014
41	0x3d5001ea	0.050783075
42	0xbc883e1b	-0.016631177
43	0x3c268dcc	0.010165643
44	0x3cecf32e	0.02892455
45	0x3d83edce	0.06441842
46	0xbcd05fae	-0.025436249
47	0xbd491868	-0.04909554
48	0x3d47667a	0.048681714
49	0x3d8605e5	0.06544093
50	0xbc2e553f	-0.010640441
51	0x3d37d0ba	0.04487679
52	0x3afa2626	0.0019084855
53	0xbd4c4ef8	-0.049879998
54	0xbd74a2b9	-0.059725497
55	0xbc45f7a7	-0.012082971
56	0xbd4c3a16	-0.049860083
57	0xbd674c36	-0.056469165
58	0x3c5ca8c3	0.01346797
59	0x3d933e04	0.07189563
60	0x3cef2e26	0.02919681
61	0xbbfbcf26	-0.007684606
62	0xbcac888f	-0.02106121
63	0xbc97c227	-0.018525196

base.1.conv.1.running_mean f4 [64]
0	0xbd596785	-0.05307724
1	0x3de9d371	0.114172824
2	0xbd8e4071	-0.06945885
3	0xbc81b935	-0.015835384
4	0xbc6e6bf6	-0.014552107
5	0x3d90b299	0.07065315
6	0xbcf5847a	-0.029970396
7	0x3de11302	0.109899536
8	0x3ce72197	0.02821426
9	0xbcd90a8d	-0.026494289
10	0xbe2796e6	-0.16366157
11	0x3d7db6cb	0.061941903
12	0x3db3df80	0.087828636
13	0xbd8bfba7	-0.06835108
14	0x3d694f4a	0.05696038
15	0xbcaf8421	-0.021425309
16	0xbd67b51a	-0.056569196
17	0x3e34dc23	0.176621
18	0x3da3abb0	0.07991731
19	0x3d54931f	0.051898118
20	0xbda26a19	-0.07930393
21	0xbd8e5bea	-0.06951125
22	0x3d20a813	0.039222788
23	0x3dec11fa	0.11526866
24	0xbd99747e	-0.07492922
25	0xbdb9ad2c	-0.09066233
26	0xbdbf42cb	-0.093389116
27	0x3c624028	0.013809241
28	0xbd3e8fef	-0.046523985
29	0x3c4361d1	0.011925177
30	0xbd8c04f7	-0.068368845
31	0x3de0dd99	0.109797664
32	0x3dfb2c0b	0.1226426
33	0xbd7700c7	-0.060303476
34	0xbdd0d20a	-0.10196312
35	0xbd8887d9	-0.06666536
36	0x3da3c5e5	0.0799673
37	0xba9664ad	-0.0011474096
38	0xbdb03ae1	-0.0860498
39	0x3dab5c9b	0.083672725
40	0xbd344ac4	-0.044016615
41	0x3d344663	0.04401244
42	0xbdcf5ade	-0.101247534
43	0xbe160370	-0.14649749
44	0xbb8a9498	-0.0042291395
45	0xbd81136f	-0.06302535
46	0xbd7724da	-0.06033788
47	0x3d87642b	0.066109024
48	0xbd7167c1	-0.058936838
49	0xbb8b76c0	-0.0042560995
50	0x3d64d0f3	0.055863332
51	0xbd4e9fd5	-0.050445396
52	0x3da5fa3f	0.08104371
53	0x3d857dab	0.0651811
54	0x3d2eb7a9	0.04265562
55	0x3dc21e67	0.09478455
56	0x3d995714	0.07487312
57	0xbd843aa4	-0.06456497
58	0xbd8e6dcf	-0.06954538
59	0xbdb65200	-0.08902359
60	0xbbd7c827	-0.0065851393
61	0xbd5b96aa	-0.05361048
62	0xbdb09e69	-0.08623964
63	0x3dba3d34	0.09093705

base.1.conv.1.running_var f4 [64]
0	0x3ca73398	0.020410344
1	0x3dbdf8e2	0.09275986
2	0x3d2fe6d4	0.042944744
3	0x3bb92628	0.0056503005
4	0x3b8d2dd0	0.00430844
5	0x3d2df524	0.042470112
6	0x3c0df258	0.008663736
7	0x3dc5c7ed	0.096572734
8	0x3c252360	0.010079235
9	0x3bdf94f8	0.0068231784
10	0x3e505351	0.20344283
11	0x3cfc6d55	0.030813852
12	0x3d70a1a5	0.058747906
13	0x3d0acd68	0.033887297
14	0x3cfb0130	0.030640215
15	0x3b85cbd1	0.0040831347
16	0x3ce7a126	0.028275084
17	0x3e84c046	0.25927943
18	0x3d2c3698	0.042044252
19	0x3ccade14	0.024764098
20	0x3d376947	0.044778135
21	0x3d3fb2cd	0.046801377
22	0x3c6d3f30	0.014480397
23	0x3deb5ed5	0.11492697
24	0x3d280e09	0.04102901
25	0x3d837504	0.06418803
26	0x3d8d5b36	0.06902163
27	0x3b664cf5	0.0035141085
28	0x3cc4e2b6	0.024033885
29	0x3c5ab2e9	0.01334832
30	0x3d25fffa	0.04052732
31	0x3db1fb9b	0.08690568
32	0x3de9e1c9	0.11420018
33	0x3ce6d7e9	0.028179126
34	0x3d9a9963	0.075487874
35	0x3cfae700	0.030627728
36	0x3d33a519	0.04385862
37	0x3b18cc2e	0.002331506
38	0x3d7e36f3	0.062064122
39	0x3d437085	0.04771473
40	0x3cb339d9	0.02187817
41	0x3c74606d	0.014915568
42	0x3db5e885	0.0888224
43	0x3e1acfa3	0.1511827
44	0x3c0054e2	0.007832738
45	0x3d0aaf8d	0.033858825
46	0x3ce3e750	0.02782026
47	0x3cf927fc	0.030414574
48	0x3cd10082	0.025512937
49	0x3ba63abe	0.0050729206
50	0x3ce60e73	0.028083062
51	0x3c9b14ec	0.018930875
52	0x3d6f9ebe	0.058500998
53	0x3d148eea	0.036269106
54	0x3c75f2ce	0.015011502
55	0x3d84fb5a	0.06493254
56	0x3d3929fd	0.04520606
57	0x3d128dae	0.035779648
58	0x3d137968	0.036004454
59	0x3d915a68	0.07097322
60	0x3b91c0a9	0.0044480157
61	0x3ccad659	0.024760412
62	0x3d5f6784	0.05454208
63	0x3d6611ba	0.05616925

base.1.conv.3.weight f4 [64, 64, 1, 1]
0	0xbdef1508	-0.11673933
1	0x3ca86f1b	0.020560792
2	0xbdee402e	-0.11633335
3	0xbceb110f	-0.028694658
4	0x3c4250b3	0.0118600605
5	0x3bfb6d9f	0.00767298
6	0xbdea6655	-0.114452995
7	0x3cc20e37	0.023688419
8	0x3db2be0c	0.08727655
9	0x3d1ff4cf	0.039051827
10	0xbd494aaf	-0.04914349
11	0xbd5384b9	-0.051640246
12	0x3a9afda2	0.0011824856
13	0xbd6f2aae	-0.058390312
14	0x3dcf50b9	0.101228185
15	0xbc107371	-0.008816586
16	0x3aefcb64	0.0018294868
17	0xbd4133d0	-0.047168553
18	0xbd2a2879	-0.041542504
19	0x3d3acd48	0.045605928
20	0xbd817e01	-0.063228615
21	0x3e174fd6	0.14776549
22	0x3e1bd7e3	0.15219073
23	0xbc621e10	-0.013801113
24	0xbdcc6459	-0.09980077
25	0xbdb09e6c	-0.086239666
26	0xbbab164d	-0.0052211643
27	0x3d044733	0.032294463
28	0x3da3fab8	0.08006805
29	0x3e04dd75	0.12975104
30	0x3e3fabd5	0.18717892
31	0x3d37f913	0.04491527
32	0x3db3ed20	0.087854624
33	0xbd410317	-0.047122087
34	0x3ca9df0d	0.020736242
35	0xbd3c937d	-0.046039093
36	0x3cacae8b	0.021079322
37	0xbe00f872	-0.12594774
38	0xbd748f4f	-0.059706982
39	0x3dbe53ab	0.09293302
40	0xbe28e5f4	-0.1649397
41	0xbe067117	-0.13129078
42	0x3d3c8ee7	0.04603472
43	0xbbd2b7c1	-0.0064305966
44	0xbd988773	-0.0744771
45	0xbd8bd811	-0.06828321
46	0x3d66473e	0.056220286
47	0x3dbbd09b	0.09170648
48	0xbd53263f	-0.051550146
49	0x3d69f942	0.057122476
50	0xbc981711	-0.018565686
51	0xbceb6337	-0.028733833
52	0xbcaadfc3	-0.020858651
53	0xbe1f9126	-0.15582713
54	0x3df52b4c	0.11971149
55	0xbd7bedfc	-0.061506256
56	0x3da10e06	0.07864003
57	0x3dc46070	0.095887065
58	0xbd0cf290	-0.034411013
59	0xbd1e9954	-0.038720444
60	0x3db46ef2	0.08810224
61	0x3d4cdbd0	0.050014317
62	0x3d4ba534	0.049718097
63	0xbd018421	-0.03162015
64	0xbc90b682	-0.017665152
65	0x3c8bb6dc	0.017054968
66	0xbd83056d	-0.06397519
67	0x3d23794c	0.0399106
68	0x3cc72208	0.02430822
69	0x3d76eaaa	0.060282387
70	0xbd9fcb0f	-0.07802402
71	0x3c12a716	0.008950969
72	0x3d0f840c	0.03503804
73	0x3d9e13d0	0.07718623
74	0xbd2e103a	-0.042495944
75	0x3d5c0bfd	0.05372237
76	0xbda6649d	-0.08124659
77	0xbd22c720	-0.03974068
78	0xbc7012e6	-0.014652943
79	0xbd2368ab	-0.03989474
80	0x3d2b90ef	0.041886266
81	0x3d91927f	0.0710802
82	0xbd965409	-0.07340247
83	0xbc9cce07	-0.01914121
84	0x39c3b97d	0.00037331498
85	0xbdbdc9b9	-0.09266991
86	0x3d39edc5	0.04539277
87	0xbd5df9a1	-0.054193143
88	0x3c5fe63f	0.013665735
89	0x3de22465	0.11042098
90	0x3d537d08	0.05163291
91	0xbc9f3c31	-0.019437881
92	0x3b54b731	0.0032457823
93	0x3dbd6179	0.09247107
94	0x3d24c73a	0.04022906
95	0xbc890e51	-0.01673046
96	0x3cfb7f7b	0.030700436
97	0xbddaa4d7	-0.10675972
98	0x3c4fea49	0.012690135
99	0xbc70005e	-0.014648525
100	0xbd367c60	-0.044552207
101	0xbe468bee	-0.19389316
102	0x3c48da51	0.012259082
103	0xbd29fb25	-0.041499276
104	0xbdbee878	-0.09321684
105	0x3d8aa1d7	0.0676915
106	0x3c850acd	0.016240502
107	0x3d1be490	0.03805977
108	0xbc4feff6	-0.0126914885
109	0x3c972a76	0.018452864
110	0x3c21747a	0.00985443
111	0xbcfdcd0c	-0.030981563
112	0x3d4a9739	0.049460623
113	0xbd41afcc	-0.047286794
114	0xbc981600	-0.018565178
115	0xbd93eb0c	-0.07222566
116	0xbd4ffce1	-0.050778273
117	0x3d18eb1d	0.037333596
118	0xbe0257c6	-0.12728795
119	0x3d6b7420	0.057483792
120	0x3afc0298	0.0019226847
121	0x3c7ee217	0.015556834
122	0xbd04cfb0	-0.03242463
123	0x3d3d01da	0.046144344
124	0x3decaa07	0.11555868
125	0xbd5f99aa	-0.054589905
126	0x3c59773c	0.013273057
127	0xbc8cd7df	-0.01719278
128	0x3babf147	0.0052472684
129	0xbc81fa2b	-0.01586636
130	0xbd54add4	-0.051923588
131	0xbcff9daf	-0.03120312
132	0xbe0c1618	-0.13680303
133	0xbcd75502	-0.026285652
134	0x3df146c9	0.11781079
135	0x3d706004	0.058685318
136	0x3d21e6e2	0.039526828
137	0x3d9ceb25	0.07662038
138	0xbd697a41	-0.057001356
139	0xbd2375b5	-0.039907176
140	0x3dee04b8	0.11621994
141	0xbc81be0d	-0.015837694
142	0xbd63a6d4	-0.05557902
143	0x3da27625	0.079326905
144	0xbad35bbf	-0.0016125365
145	0xbe15d21a	-0.14630929
146	0x3d0c46ff	0.034247395
147	0xbd94758a	-0.07248981
148	0x39d17a13	0.0003995454
149	0x3c2c3cba	0.010512525
150	0x3dc89bdf	0.09795355
151	0x3d2127c4	0.039344564
152	0x3dabdaa2	0.0839131
153	0xbd7f1b80	-0.062282085
154	0xbd931a72	-0.071827784
155	0xbde2c814	-0.11073318
156	0x3e4d6599	0.20058288
157	0xbb47558c	-0.003041598
158	0xbc5dae35	-0.013530304
159	0xbd3f3681	-0.04668284
160	0xbd770359	-0.060305927
161	0x3dc183f1	0.09448994
162	0xbc12d143	-0.008961025
163	0xbe2c4e00	-0.1682663
164	0xbd690f03	-0.056899082
165	0xbc9c2ec9	-0.019065278
166	0x3c514b2e	0.012774272
167	0x3e26e114	0.16296798
168	0x3d9d719f	0.07687687
169	0xbcdec171	-0.02719185
170	0xbbb27fba	-0.005447355
171	0xbda9c678	-0.08289808
172	0x3e2c2506	0.16810998
173	0xbd97d42d	-0.07413516
174	0xbd37cb39	-0.044871543
175	0x3d0f5561	0.034993533
176	0xbe0209bd	-0.12699027
177	0xbdc2b239	-0.095066495
178	0xbcd74562	-0.026278201
179	0xbe182bcb	-0.14860456
180	0x3c9df0a3	0.019279784
181	0xbd8a91c5	-0.067660846
182	0x3dfc24e3	0.12311723
183	0xbcb2f44d	-0.021845007
184	0xbd092d57	-0.033490505
185	0xbd2af69d	-0.041739095
186	0xbab24ecb	-0.0013603804
187	0xbd9bb25a	-0.07602377
188	0xbe154381	-0.14576532
189	0xbc8ead3e	-0.017416593
190	0x3c4c3174	0.012462962
191	0xbcaa94d3	-0.020822918
192	0x3d71b242	0.05900789
193	0x3bb07d91	0.0053860624
194	0x3d84e141	0.06488276
195	0x3d808faa	0.06277402
196	0x3c64e144	0.013969723
197	0x3b965d03	0.0045887246
198	0x3bfc1fcf	0.0076942216
199	0x3b885869	0.00416093
200	0x3d92410a	0.071413115
201	0x3d4afb52	0.049556084
202	0xbd06114d	-0.032731343
203	0xbd1f3015	-0.038864214
204	0x3d6699c1	0.056298975
205	0x3d9baa02	0.07600786
206	0x3dfb4af7	0.12270158
207	0xbd6a3362	-0.05717791
208	0x3cbce142	0.02305663
209	0x3d8ba434	0.06818429
210	0xbd36b66e	-0.044607572
211	0xbd030260	-0.031984687
212	0xbd0d96cc	-0.03456764
213	0xbcb8f892	-0.022579465
214	0xbb220973	-0.002472487
215	0xbc94bd99	-0.018156813
216	0xbe22c04e	-0.15893671
217	0xbc99a6dd	-0.018756324
218	0x3c947ca7	0.018125845
219	0xbe6d6038	-0.23181236
220	0xbd8046b7	-0.06263488
221	0x3b09cfb6	0.0021028346
222	0xbcd63e9d	-0.026152903
223	0x3c2a2e5a	0.010387028
224	0xbc8fb35e	-0.017541584
225	0xbda51d3f	-0.08062219
226	0x3d5bbd02	0.05364705
227	0xbe1fa129	-0.15588821
228	0x3e74f329	0.23920883
229	0x3e3705fd	0.17873378
230	0x3dade9d7	0.08491867
231	0x3ce80c6c	0.028326236
232	0x3d40bce0	0.047055125
233	0xbd3a5aed	-0.04549687
234	0xbd3d8441	-0.046268705
235	0xbd1c4628	-0.038152844
236	0xbe2d669c	-0.16933674
237	0xbdaf08f2	-0.08546628
238	0x3d12e336	0.035861216
239	0xbe79e097	-0.2440208
240	0xbc953b55	-0.018216768
241	0xbce54f08	-0.027991787
242	0x3ce3dc19	0.027814912
243	0xbc51f71a	-0.012815261
244	0x3d3d080e	0.04615026
245	0xbda56169	-0.0807522
246	0x3d2243aa	0.03961531
247	0xba8fd1ec	-0.0010972596
248	0x3d33766e	0.043814115
249	0x3ce94bfe	0.028478619
250	0xbd882e85	-0.06649498
251	0x3d531daf	0.05154198
252	0xbd95bb13	-0.07311072
253	0xbd709321	-0.058734063
254	0x3d2cf72c	0.04222791
255	0xbca3f61a	-0.020014811

base.1.conv.4.weight f4 [64]
0	0x3ef8d2e1	0.48598388
1	0x3edda53f	0.43290135
2	0x3ef95466	0.48697203
3	0x3ed8d9bb	0.42353615
4	0x3ef3a58d	0.47587243
5	0x3ed8a497	0.42313072
6	0x3f1caabb	0.61198014
7	0x3ee817f0	0.45330763
8	0x3f165576	0.58724153
9	0x3eecccf7	0.46250126
10	0x3f2048c5	0.6261104
11	0x3eb82a2d	0.35969678
12	0x3ec595a2	0.38590723
13	0x3ed82114	0.42212737
14	0x3f04e3f6	0.5191034
15	0x3ece44c1	0.4028683
16	0x3eeb98e2	0.46015078
17	0x3ebad097	0.36487266
18	0x3ebbd891	0.36688665
19	0x3ef71975	0.4826161
20	0x3ed2dd50	0.41184473
21	0x3ef40a18	0.4766395
22	0x3efc0e66	0.49229735
23	0x3f115e1a	0.5678421
24	0x3f40db04	0.7533419
25	0x3efe78b2	0.49701458
26	0x3ec45152	0.38343292
27	0x3ebb542a	0.3658765
28	0x3efb099c	0.4903077
29	0x3edf7cbd	0.43649855
30	0x3f121977	0.57070106
31	0x3ecad00e	0.39611858
32	0x3f1b2b73	0.60613173
33	0x3ecbe1f3	0.39820823
34	0x3ecb72af	0.39735934
35	0x3ef570f4	0.4793774
36	0x3eb8c3c3	0.36086854
37	0x3f017166	0.5056366
38	0x3ee8f115	0.4549643
39	0x3ef38b16	0.47567052
40	0x3eb27a5c	0.34858978
41	0x3ee0f399	0.4393585
42	0x3eeebbe8	0.46627736
43	0x3ed5ed8a	0.4178279
44	0x3ef1235c	0.4709729
45	0x3f02d630	0.51108074
46	0x3ec661e3	0.38746557
47	0x3eff60b4	0.49878466
48	0x3ef08be8	0.4698174
49	0x3ee09323	0.43862256
50	0x3f0bb590	0.5457392
51	0x3ef5f72c	0.4804014
52	0x3f0cc907	0.54994243
53	0x3f121245	0.5705913
54	0x3ee5918e	0.44837612
55	0x3eeb1ede	0.45921987
56	0x3eec0c91	0.46103337
57	0x3f1a4c1a	0.6027237
58	0x3eec752f	0.46183154
59	0x3eb5d179	0.35511377
60	0x3ec6c8f7	0.388252
61	0x3ec20aee	0.37898964
62	0x3ee59c7c	0.4484595
63	0x3ee92fd6	0.45544308

base.1.conv.4.bias f4 [64]
0	0xbcd098b2	-0.025463436
1	0x3d212e6f	0.039350923
2	0xbd28ea51	-0.041239087
3	0x3c7c33be	0.015393196
4	0xbd1590a5	-0.036514897
5	0x3ce47708	0.02788879
6	0x3dab8c81	0.08376408
7	0x3b774ad8	0.003773382
8	0x3d0bf264	0.03416671
9	0x3d7ce8ae	0.06174534
10	0xbde44f80	-0.11147976
11	0x3cd6faed	0.026242698
12	0x3b28bc44	0.002574698
13	0xbbbcf040	-0.0057659447
14	0xbd444630	-0.0479185
15	0xbdd6f667	-0.10496216
16	0xbd9b8c44	-0.07595113
17	0xbd6e9a2f	-0.05825251
18	0xbcd43329	-0.025903301
19	0xbd2ea275	-0.0426354
20	0xbd006737	-0.031348433
21	0x3d96e1a6	0.07367258
22	0xbd19af62	-0.037520774
23	0x3bc0c0fa	0.0058823796
24	0x3e1a97b6	0.15096936
25	0xbd515526	-0.051106595
26	0xbd1a2c74	-0.03764005
27	0x3c90b6a3	0.017665213
28	0xbd829334	-0.06375733
29	0xbdd189bb	-0.10231348
30	0x3dd6b34b	0.10483416
31	0xbd4aa75c	-0.049476013
32	0xbc77b1a3	-0.0151180355
33	0xbd8f0446	-0.06983237
34	0xbcdeb014	-0.02718357
35	0x3c2c989e	0.010534434
36	0x3d24ade4	0.040204898
37	0x3c8c6062	0.017135803
38	0x3d45fb05	0.048335094
39	0xbcca1ad8	-0.024671003
40	0xbb7d4204	-0.0038644085
41	0xbd000dd8	-0.031263202
42	0x3cdaac2f	0.026693432
43	0x3d8352ad	0.064122535
44	0x3d3e3071	0.046432916
45	0x3d1d84b4	0.038456634
46	0xbcc93ebb	-0.024566045
47	0xbda3b287	-0.07993036
48	0xbd597880	-0.053093433
49	0xbc8fb43a	-0.017541993
50	0x3da32b4f	0.07967245
51	0x3cd3be17	0.025847478
52	0x3d820df4	0.063503176
53	0xbd2e810e	-0.042603545
54	0xbc66ec3b	-0.014094408
55	0x3d5276a7	0.051382687
56	0xbcc6511a	-0.024208594
57	0xbcce569e	-0.025187787
58	0xbdcfa532	-0.101389304
59	0xbb6bdde4	-0.0035990411
60	0xbde9bbdf	-0.11412787
61	0xbd06eb24	-0.03293909
62	0x3cfe4c7a	0.031042326
63	0xbc2a84e1	-0.010407657

base.1.conv.4.running_mean f4 [64]
0	0x3ea83430	0.32852316
1	0xbe840898	-0.25787807
2	0xbea3312b	-0.3187345
3	0xbe80bd5a	-0.25144464
4	0x3e3ad5ee	0.1824567
5	0xbe94d472	-0.29068333
6	0xbf1d53c1	-0.61455923
7	0xbe7c7795	-0.24654992
8	0xbecaae42	-0.39586073
9	0xbf0385b9	-0.5137592
10	0x3e897bc1	0.2685223
11	0x3e20a547	0.15688048
12	0x3d9b9462	0.07596661
13	0x3c8747da	0.016513754
14	0x3e5d8019	0.21630897
15	0xbe14405b	-0.14477675
16	0xbdf212db	-0.11820003
17	0x3da05b82	0.07829954
18	0x3efeafd3	0.49743518
19	0x3e8c29e6	0.27375716
20	0xbd9fbf57	-0.07800167
21	0x3df8722d	0.12131152
22	0x3d9235c0	0.07139158
23	0xbebf32a7	-0.37343332
24	0xbeeb3e53	-0.45945987
25	0x3e8606fb	0.261772
26	0x3e21b297	0.15790783
27	0xbec2f822	-0.38079935
28	0x3d190ee4	0.037367716
29	0x3e885977	0.26630756
30	0x3e2469fa	0.16056052
31	0xbde6add5	-0.112636246
32	0x3e321b6f	0.17393278
33	0x3dc9a576	0.09846012
34	0x3d411448	0.047138482
35	0xbebe7c74	-0.37204325
36	0xbe81518e	-0.25257534
37	0x3ebc79cf	0.36811683
38	0x3d87f7b2	0.06639041
39	0xbe0b34b8	-0.1359433
40	0x3e6218fe	0.22079846
41	0xbe3f4dec	-0.18682069
42	0x3e030b06	0.12797174
43	0xbef622ed	-0.4807352
44	0xbd8fc1e2	-0.07019402
45	0xbd0d91ce	-0.03456288
46	0xbde3d21b	-0.11124059
47	0x3f226cb2	0.63447106
48	0x3e29e914	0.16592818
49	0x3d080ff3	0.033218335
50	0xbe8dfba1	-0.2773104
51	0x3eba3940	0.36371803
52	0xbe8c9c09	-0.27462795
53	0x3ec68ce6	0.38779372
54	0xbeedf41f	-0.46475312
55	0xbe8288ec	-0.25495088
56	0x3f16e85e	0.58948314
57	0x3e0b4f20	0.13604403
58	0x3e26d8ec	0.16293687
59	0xbe493cb0	-0.19652057
60	0xbebe69f7	-0.3719022
61	0xbe7d5443	-0.24739175
62	0x3c6187c6	0.013765281
63	0xbe36e98a	-0.17862526

base.1.conv.4.running_var f4 [64]
0	0x3e81410b	0.25244936
1	0x3fa8c5a6	1.3185318
2	0x3ec2ab32	0.38021237
3	0x3e0e5c60	0.13902426
4	0x3e82e326	0.25563926
5	0x3e47b2d5	0.19501813
6	0x3e924094	0.28564894
7	0x3f751fb2	0.9575149
8	0x3e75591c	0.23959774
9	0x3eaea344	0.34108937
10	0x3e9e20ac	0.30884302
11	0x3f4b9484	0.7952349
12	0x3f0832fd	0.532028
13	0x3ec8426b	0.39113173
14	0x3e7ef1df	0.24896954
15	0x3ea62ca1	0.32455924
16	0x3e30d9a8	0.1727053
17	0x3f194801	0.59875494
18	0x3fa86eb4	1.3158784
19	0x3e948a87	0.29011938
20	0x3fa27ba9	1.2693988
21	0x3f667f43	0.90037936
22	0x3f3d9ddc	0.74069
23	0x3ed5d72d	0.4176573
24	0x3ef18ce9	0.47177818
25	0x3fa28750	1.2697544
26	0x3fa00d9d	1.2504154
27	0x3e9af794	0.30267012
28	0x3e898964	0.26862633
29	0x3f584085	0.8447345
30	0x3e592094	0.21203834
31	0x3f08f875	0.53504115
32	0x3f613ae5	0.8798049
33	0x3fb5a650	1.419138
34	0x3e0673c4	0.13130099
35	0x3e9afd4b	0.30271372
36	0x3fd015b1	1.625662
37	0x3f21e025	0.6323264
38	0x3edcf361	0.43154433
39	0x3f140d88	0.5783315
40	0x3f53a4a7	0.82673115
41	0x3efb508c	0.4908489
42	0x3ee11170	0.43958616
43	0x3ec3a1bb	0.38209328
44	0x3e948365	0.29006496
45	0x3ea3b91c	0.31977165
46	0x3f124487	0.57135814
47	0x3ee4f571	0.44718507
48	0x3efc0441	0.49221995
49	0x3f5d6563	0.8648283
50	0x3ecc57ea	0.39910823
51	0x3f18c6e5	0.5967849
52	0x3ea9636a	0.3308366
53	0x3ed3c07d	0.41357794
54	0x3deae648	0.11469704
55	0x3f139596	0.57650125
56	0x3e642281	0.22278787
57	0x3eef133b	0.4669436
58	0x3e8bc625	0.2729961
59	0x3f2d9d47	0.6781811
60	0x3f4952e0	0.7864208
61	0x3f752771	0.9576331
62	0x3e1026cb	0.14077298
63	0x3f7e814b	0.99416035

base.2.conv.0.weight f4 [128, 64, 1, 1]
0	0x3d915afa	0.070974305
1	0x3dc4f4a4	0.09616974
2	0x3dbd2301	0.09235192
3	0x3c331ad8	0.010931693
4	0x3e287486	0.164507
5	0x3cdd1702	0.02698851
6	0xbe121eb0	-0.14269519
7	0x3c87a03c	0.016555898
8	0xbd92d467	-0.07169419
9	0x3ce44991	0.02786711
10	0xbd87642e	-0.06610905
11	0xbe0763b2	-0.13221624
12	0x3d77d030	0.060501277
13	0xbd7482f3	-0.059695195
14	0x3c9a33ef	0.018823592
15	0x3df4507f	0.11929416
16	0xbc25b772	-0.010114538
17	0xbc24cb84	-0.0100582875
18	0xbe4090cb	-0.18805234
19	0x3d2c1ab1	0.042017642
20	0xbd925335	-0.07144777
21	0x3d5f1c73	0.05447049
22	0xbbe85f6d	-0.0070914538
23	0xbda6d07d	-0.08145235
24	0x3d5e6ae2	0.05430115
25	0xbb9ae823	-0.00472738
26	0x3cfb025a	0.03064077
27	0xbcd53e21	-0.026030602
28	0xbd08154a	-0.033223428
29	0xbbc10a1a	-0.005891097
30	0x3d90c6ae	0.07069145
31	0xbd1e0661	-0.038580302
32	0xbd186c00	-0.03721237
33	0x3ca544e6	0.020174455
34	0x3c4c810a	0.012481937
35	0x3dc0c99b	0.09413453
36	0xbdaa6336	-0.08319704
37	0xbe20ff49	-0.15722384
38	0x3d2d588b	0.04232077
39	0xbd3a5c95	-0.04549845
40	0xbda91234	-0.08255425
41	0x3dd4a9bf	0.10383939
42	0xbc82edfd	-0.015982622
43	0xbc88527d	-0.016640896
44	0xbcdf3a1e	-0.027249392
45	0xbc072ba0	-0.008250147
46	0xbcc80199	-0.024414824
47	0x3b983e7c	0.0046461206
48	0xbc1cf8f1	-0.009580837
49	0x3cf8aa38	0.030354604
50	0x3d0465c1	0.032323603
51	0xbdfb4293	-0.122685574
52	0xbbde603e	-0.0067863753
53	0x3bb1a396	0.0054211123
54	0xbac96e71	-0.0015367997
55	0x3e258eb8	0.16167724
56	0x3e19d69e	0.15023276
57	0xbd77638e	-0.060397677
58	0x3c3b0dd4	0.011416871
59	0x3c67d092	0.014148848
60	0xbd9bfaba	-0.07616182
61	0xbd8a55d8	-0.06754655
62	0xbd19fcb9	-0.03759453
63	0x3db32b23	0.08748462
64	0x3e160a80	0.14652443
65	0x3d2744d5	0.040837128
66	0xbe00ace9	-0.1256596
67	0x3cc96411	0.024583848
68	0x3c715d21	0.014731676
69	0xbd8e956a	-0.06962092
70	0x3d0a51c0	0.03376937
71	0x3dc25ea8	0.094907105
72	0x3e2f3eaa	0.17113748
73	0xbdc8b74c	-0.09800586
74	0xbc00db9a	-0.007864857
75	0xbe1e107c	-0.15435976
76	0x3db76105	0.08954052
77	0x3d711adb	0.058863502
78	0x3ddb135d	0.10697053
79	0x3cfa2931	0.03053722
80	0xbdaf6984	-0.085650474
81	0x3d007cf6	0.031369172
82	0x3d80f9eb	0.06297668
83	0xbdc2703b	-0.094940625
84	0x3bbae27b	0.005703268
85	0x3d181229	0.037126694
86	0xbe58afc8	-0.21160805
87	0xbd4a6b65	-0.049418826
88	0xbd3d37df	-0.04619586
89	0xbdcb8e6c	-0.09939274
90	0xbdd2aa7a	-0.10286422
91	0xbcfbdf33	-0.030746078
92	0xbc6ba9ef	-0.014383777
93	0x3cd4d753	0.02598158
94	0x3e1a67be	0.15078637
95	0x3c1a5c0a	0.009421358
96	0x3d64d100	0.05586338
97	0xbd83c710	-0.064344525
98	0x3e43e4be	0.19130227
99	0xbd5c6205	-0.053804416
100	0x3e43cf89	0.19122137
101	0xbd786a2f	-0.06064814
102	0x3cc50289	0.02404906
103	0xbd728252	-0.059206314
104	0x3c98a216	0.018631976
105	0xbd651da4	-0.05593647
106	0x3cb2c4c6	0.021822345
107	0xbbf52fa0	-0.007482484
108	0xbe81e802	-0.2537232
109	0xbda5c3aa	-0.080939606
110	0x3cd51ba3	0.026014155
111	0xbe24ee40	-0.1610651
112	0xbcff6377	-0.031175358
113	0xbc9b542f	-0.01896104
114	0x3e020bc7	0.12699805
115	0x3e1832ac	0.1486308
116	0xbcc8a69c	-0.024493508
117	0xbdcf29e0	-0.10115409
118	0xbc43be55	-0.011947234
119	0x3e105fba	0.14099017
120	0xbd2ed652	-0.04268486
121	0xbe190967	-0.14944993
122	0x3c79ab8c	0.015238654
123	0xbe415c81	-0.18882944
124	0x396cf810	0.00022599124
125	0xbdb494c8	-0.0881744
126	0xbcc977ba	-0.024593223
127	0xbe152ef4	-0.14568692
128	0xbe558cf1	-0.20854546
129	0xba35b764	-0.00069319294
130	0xbc174260	-0.009232134
131	0xbd0bbca2	-0.03411544
132	0x3df33e5f	0.11877131
133	0xbd8431d9	-0.0645482
134	0xbddb923e	-0.10721253
135	0x3e0549f4	0.13016492
136	0xbd826a94	-0.063679844
137	0x3dd2c342	0.10291149
138	0xbaef0502	-0.0018235745
139	0x3de0acd9	0.10970468
140	0xbd80edf8	-0.06295389
141	0x3d4d7954	0.050164536
142	0x3d9c2b6f	0.07625472
143	0xbd51580b	-0.051109355
144	0x3ce1bcd3	0.027555859
145	0x3a20ed7a	0.00061389024
146	0xbd10d291	-0.03535706
147	0xbcb8227c	-0.022477381
148	0xbcfc3171	-0.030785294
149	0x3dc69b06	0.09697537
150	0x3cf5970c	0.029979251
151	0x3e5619c1	0.20908262
152	0x3deeec5b	0.11666175
153	0xbdb4fa73	-0.08836832
154	0x3dbffc54	0.093743
155	0x3df0ebb5	0.117637075
156	0xbdef7eef	-0.116941325
157	0xbd5208fb	-0.051278096
158	0xbd077c55	-0.033077557
159	0xbd9360d4	-0.07196203
160	0xbca8690d	-0.020557905
161	0xbdc3b646	-0.0955625
162	0xbcd7c699	-0.026339816
163	0xbe0edbbd	-0.13951011
164	0xbdabff43	-0.08398297
165	0xbe0c84c3	-0.1372252
166	0xbde53d67	-0.11193352
167	0xbdf98c69	-0.12184984
168	0xbd9d4c37	-0.076805525
169	0x3d43b819	0.04778299
170	0x3e117b37	0.14207159
171	0x3bac2f66	0.005254674
172	0xbc95c5a9	-0.018282728
173	0x3d858c8e	0.06520949
174	0xbd3fc5ba	-0.046819426
175	0x3e48d6a1	0.19613124
176	0xbd5d5dbb	-0.054044466
177	0x3b642992	0.0034814817
178	0xbe202390	-0.15638566
179	0xbdaa875b	-0.08326598
180	0xbda37d5a	-0.07982893
181	0xbcf21b7a	-0.029554117
182	0x3dbe17eb	0.09281906
183	0xbd6a91d3	-0.057267975
184	0xbdeb136a	-0.11478312
185	0x3da8050f	0.0820409
186	0x3d5b430d	0.05353074
187	0xbd19c20c	-0.037538573
188	0x3d4d9b7f	0.05019712
189	0x3d19f537	0.03758737
190	0x3d634f2c	0.055495426
191	0x3dfada4f	0.1224867
192	0xbd03e111	-0.032197062
193	0x3d047573	0.03233857
194	0x3c0fc04d	0.008773875
195	0x3d82e4b1	0.06391276
196	0xbe72e43e	-0.2371988
197	0x3d80a5c4	0.06281617
198	0xbe5df5a1	-0.21675731
199	0xbd0d4eb6	-0.034498893
200	0xbdc50fb9	-0.096221395
201	0xbcfefdb4	-0.031126834
202	0x3e2b58ea	0.16733137
203	0xbe0fbc03	-0.14036565
204	0x3e4503cc	0.1923973
205	0xbbd22146	-0.006412658
206	0xbdd51f95	-0.104064144
207	0xbcfcd845	-0.030864844
208	0xba804e17	-0.0009788898
209	0xbcf3b018	-0.029747054
210	0x3d1f04f0	0.03882307
211	0x3dc44583	0.09583571
212	0xbde310a1	-0.11087156
213	0x3d5b4a75	0.053537805
214	0x3e04cb5a	0.12968197
215	0x3c469cf7	0.012122384
216	0xbe086a25	-0.13321741
217	0x3d75b773	0.059989404
218	0x3db4d167	0.08829003
219	0xbcb3b9bb	-0.02193915
220	0xbdb52352	-0.088446274
221	0x3d9f4bbd	0.07778118
222	0xbe4198b4	-0.18905908
223	0x3dc42572	0.095774546
224	0x3e338942	0.17532828
225	0xbe377156	-0.17914328
226	0x3d57c6d0	0.052679837
227	0x3dae75d7	0.0851857
228	0x3bf0b4f6	0.007345791
229	0xbe06929a	-0.13141862
230	0x3db5b9db	0.0887334
231	0xbdccd3a8	-0.10001308
232	0xbdb24824	-0.08705166
233	0x3dd51b3d	0.10405586
234	0xbcf0c9b5	-0.029393056
235	0x3e5ee3c9	0.2176658
236	0x3dacdf92	0.0844108
237	0xbbf62903	-0.007512213
238	0xbdb7e6e7	-0.08979588
239	0x3c9d4465	0.019197652
240	0xbe5b4359	-0.2141241
241	0x3dff4feb	0.12466415
242	0x3d82c562	0.06385304
243	0xbd8d68a8	-0.06904727
244	0xbe45aaa3	-0.19303374
245	0x3d3d84bd	0.046269167
246	0xbd10deb2	-0.03536863
247	0x3d603726	0.054740094
248	0xbe0fcd93	-0.14043264
249	0x3ac41e0f	0.0014962571
250	0x3dfe7a67	0.1242569
251	0xbe20de87	-0.15709887
252	0x3e005c68	0.1253525
253	0xbd37ad64	-0.044843093
254	0xbd94ab79	-0.07259268
255	0xbe3e31ff	-0.1857376
